node {
  name: "global_step/Initializer/zeros/shape_as_tensor"
  op: "Const"
  attr {
    key: "_class"
    value {
      list {
        s: "loc:@global_step"
      }
    }
  }
  attr {
    key: "_output_shapes"
    value {
      list {
        shape {
          dim {
          }
        }
      }
    }
  }
  attr {
    key: "dtype"
    value {
      type: DT_INT32
    }
  }
  attr {
    key: "value"
    value {
      tensor {
        dtype: DT_INT32
        tensor_shape {
          dim {
          }
        }
      }
    }
  }
}
node {
  name: "global_step/Initializer/zeros/Const"
  op: "Const"
  attr {
    key: "_class"
    value {
      list {
        s: "loc:@global_step"
      }
    }
  }
  attr {
    key: "_output_shapes"
    value {
      list {
        shape {
        }
      }
    }
  }
  attr {
    key: "dtype"
    value {
      type: DT_INT64
    }
  }
  attr {
    key: "value"
    value {
      tensor {
        dtype: DT_INT64
        tensor_shape {
        }
        int64_val: 0
      }
    }
  }
}
node {
  name: "global_step/Initializer/zeros"
  op: "Fill"
  input: "global_step/Initializer/zeros/shape_as_tensor"
  input: "global_step/Initializer/zeros/Const"
  attr {
    key: "T"
    value {
      type: DT_INT64
    }
  }
  attr {
    key: "_class"
    value {
      list {
        s: "loc:@global_step"
      }
    }
  }
  attr {
    key: "_output_shapes"
    value {
      list {
        shape {
        }
      }
    }
  }
  attr {
    key: "index_type"
    value {
      type: DT_INT32
    }
  }
}
node {
  name: "global_step"
  op: "VariableV2"
  attr {
    key: "_class"
    value {
      list {
        s: "loc:@global_step"
      }
    }
  }
  attr {
    key: "_output_shapes"
    value {
      list {
        shape {
        }
      }
    }
  }
  attr {
    key: "container"
    value {
      s: ""
    }
  }
  attr {
    key: "dtype"
    value {
      type: DT_INT64
    }
  }
  attr {
    key: "shape"
    value {
      shape {
      }
    }
  }
  attr {
    key: "shared_name"
    value {
      s: ""
    }
  }
}
node {
  name: "global_step/Assign"
  op: "Assign"
  input: "global_step"
  input: "global_step/Initializer/zeros"
  attr {
    key: "T"
    value {
      type: DT_INT64
    }
  }
  attr {
    key: "_class"
    value {
      list {
        s: "loc:@global_step"
      }
    }
  }
  attr {
    key: "_output_shapes"
    value {
      list {
        shape {
        }
      }
    }
  }
  attr {
    key: "use_locking"
    value {
      b: true
    }
  }
  attr {
    key: "validate_shape"
    value {
      b: true
    }
  }
}
node {
  name: "global_step/read"
  op: "Identity"
  input: "global_step"
  attr {
    key: "T"
    value {
      type: DT_INT64
    }
  }
  attr {
    key: "_class"
    value {
      list {
        s: "loc:@global_step"
      }
    }
  }
  attr {
    key: "_output_shapes"
    value {
      list {
        shape {
        }
      }
    }
  }
}
node {
  name: "global_step/IsVariableInitialized"
  op: "IsVariableInitialized"
  input: "global_step"
  attr {
    key: "_class"
    value {
      list {
        s: "loc:@global_step"
      }
    }
  }
  attr {
    key: "_output_shapes"
    value {
      list {
        shape {
        }
      }
    }
  }
  attr {
    key: "dtype"
    value {
      type: DT_INT64
    }
  }
}
node {
  name: "global_step/cond/Switch"
  op: "Switch"
  input: "global_step/IsVariableInitialized"
  input: "global_step/IsVariableInitialized"
  attr {
    key: "T"
    value {
      type: DT_BOOL
    }
  }
  attr {
    key: "_output_shapes"
    value {
      list {
        shape {
        }
        shape {
        }
      }
    }
  }
}
node {
  name: "global_step/cond/switch_t"
  op: "Identity"
  input: "global_step/cond/Switch:1"
  attr {
    key: "T"
    value {
      type: DT_BOOL
    }
  }
  attr {
    key: "_output_shapes"
    value {
      list {
        shape {
        }
      }
    }
  }
}
node {
  name: "global_step/cond/switch_f"
  op: "Identity"
  input: "global_step/cond/Switch"
  attr {
    key: "T"
    value {
      type: DT_BOOL
    }
  }
  attr {
    key: "_output_shapes"
    value {
      list {
        shape {
        }
      }
    }
  }
}
node {
  name: "global_step/cond/pred_id"
  op: "Identity"
  input: "global_step/IsVariableInitialized"
  attr {
    key: "T"
    value {
      type: DT_BOOL
    }
  }
  attr {
    key: "_output_shapes"
    value {
      list {
        shape {
        }
      }
    }
  }
}
node {
  name: "global_step/cond/read"
  op: "Identity"
  input: "global_step/cond/read/Switch:1"
  attr {
    key: "T"
    value {
      type: DT_INT64
    }
  }
  attr {
    key: "_output_shapes"
    value {
      list {
        shape {
        }
      }
    }
  }
}
node {
  name: "global_step/cond/read/Switch"
  op: "RefSwitch"
  input: "global_step"
  input: "global_step/cond/pred_id"
  attr {
    key: "T"
    value {
      type: DT_INT64
    }
  }
  attr {
    key: "_class"
    value {
      list {
        s: "loc:@global_step"
      }
    }
  }
  attr {
    key: "_output_shapes"
    value {
      list {
        shape {
        }
        shape {
        }
      }
    }
  }
}
node {
  name: "global_step/cond/Switch_1"
  op: "Switch"
  input: "global_step/Initializer/zeros"
  input: "global_step/cond/pred_id"
  attr {
    key: "T"
    value {
      type: DT_INT64
    }
  }
  attr {
    key: "_class"
    value {
      list {
        s: "loc:@global_step"
      }
    }
  }
  attr {
    key: "_output_shapes"
    value {
      list {
        shape {
        }
        shape {
        }
      }
    }
  }
}
node {
  name: "global_step/cond/Merge"
  op: "Merge"
  input: "global_step/cond/Switch_1"
  input: "global_step/cond/read"
  attr {
    key: "N"
    value {
      i: 2
    }
  }
  attr {
    key: "T"
    value {
      type: DT_INT64
    }
  }
  attr {
    key: "_output_shapes"
    value {
      list {
        shape {
        }
        shape {
        }
      }
    }
  }
}
node {
  name: "global_step/add/y"
  op: "Const"
  attr {
    key: "_output_shapes"
    value {
      list {
        shape {
        }
      }
    }
  }
  attr {
    key: "dtype"
    value {
      type: DT_INT64
    }
  }
  attr {
    key: "value"
    value {
      tensor {
        dtype: DT_INT64
        tensor_shape {
        }
        int64_val: 0
      }
    }
  }
}
node {
  name: "global_step/add"
  op: "Add"
  input: "global_step/cond/Merge"
  input: "global_step/add/y"
  attr {
    key: "T"
    value {
      type: DT_INT64
    }
  }
  attr {
    key: "_output_shapes"
    value {
      list {
        shape {
        }
      }
    }
  }
}
node {
  name: "tensors/component_0"
  op: "Const"
  device: "/device:CPU:0"
  attr {
    key: "_output_shapes"
    value {
      list {
        shape {
          dim {
            size: 75
          }
        }
      }
    }
  }
  attr {
    key: "dtype"
    value {
      type: DT_STRING
    }
  }
  attr {
    key: "value"
    value {
      tensor {
        dtype: DT_STRING
        tensor_shape {
          dim {
            size: 75
          }
        }
        string_val: "6573e03b-9e85-4506-82d0-c3d6be82be48"
        string_val: "6573e03b-9e85-4506-82d0-c3d6be82be48"
        string_val: "b9575882-eceb-44d0-95cb-63d07d89aa16"
        string_val: "b9575882-eceb-44d0-95cb-63d07d89aa16"
        string_val: "12566dfe-5818-44a3-868b-14e6ab6c87e5"
        string_val: "12566dfe-5818-44a3-868b-14e6ab6c87e5"
        string_val: "3effb6f4-e643-4a23-874a-8cbef1adfc7c"
        string_val: "a3aa3eb1-3962-4641-a53f-c337054c0841"
        string_val: "fab9af29-a8c7-4473-b237-80314ac6bc25"
        string_val: "a3aa3eb1-3962-4641-a53f-c337054c0841"
        string_val: "9fc8d0d3-fba7-4f5f-80b0-6259cb07b94a"
        string_val: "a82c895b-46da-4230-9ca7-bbf3918d99df"
        string_val: "81e5652e-3d2a-4393-bf78-4af6ce17a781"
        string_val: "a82c895b-46da-4230-9ca7-bbf3918d99df"
        string_val: "81e5652e-3d2a-4393-bf78-4af6ce17a781"
        string_val: "7e36e208-aaa3-4479-85c5-e886f9591988"
        string_val: "7e36e208-aaa3-4479-85c5-e886f9591988"
        string_val: "cf289ec3-1f7a-4edf-88ca-70eefb489121"
        string_val: "f4f08982-6264-4ee8-abed-7a7de531387c"
        string_val: "d286c0bf-6534-4fcf-b60a-b97a91d97b72"
        string_val: "3a0259cf-6afc-4bfe-a99f-6fe5435a1a3e"
        string_val: "4b7a5d6d-798a-4c8c-afbf-ad17744e2ae5"
        string_val: "89d45c34-5262-49c1-b1da-4587b8713d13"
        string_val: "4b7a5d6d-798a-4c8c-afbf-ad17744e2ae5"
        string_val: "89d45c34-5262-49c1-b1da-4587b8713d13"
        string_val: "8c2ae545-a23f-4cdf-94a9-a52367601bcf"
        string_val: "7c877d8e-e911-4bec-b25b-38cb0d3125aa"
        string_val: "7c877d8e-e911-4bec-b25b-38cb0d3125aa"
        string_val: "3b637be5-b0b0-49f5-b4e9-b2ff76549707"
        string_val: "fcedf4aa-18d8-4d21-a246-425d4d2d7a0c"
        string_val: "91d79c17-a953-42e6-86f6-498c7ff9a051"
        string_val: "91d79c17-a953-42e6-86f6-498c7ff9a051"
        string_val: "9913dd4b-9332-4465-8c80-11b734250046"
        string_val: "9913dd4b-9332-4465-8c80-11b734250046"
        string_val: "a50d4950-758b-4ded-8f7f-f76969b36b95"
        string_val: "a50d4950-758b-4ded-8f7f-f76969b36b95"
        string_val: "bbe21408-c73e-432f-bcd3-5bad98ba1575"
        string_val: "bbe21408-c73e-432f-bcd3-5bad98ba1575"
        string_val: "a50d4950-758b-4ded-8f7f-f76969b36b95"
        string_val: "a50d4950-758b-4ded-8f7f-f76969b36b95"
        string_val: "b9575882-eceb-44d0-95cb-63d07d89aa16"
        string_val: "b9575882-eceb-44d0-95cb-63d07d89aa16"
        string_val: "4b7a5d6d-798a-4c8c-afbf-ad17744e2ae5"
        string_val: "4b7a5d6d-798a-4c8c-afbf-ad17744e2ae5"
        string_val: "7c877d8e-e911-4bec-b25b-38cb0d3125aa"
        string_val: "7c877d8e-e911-4bec-b25b-38cb0d3125aa"
        string_val: "3b637be5-b0b0-49f5-b4e9-b2ff76549707"
        string_val: "fcedf4aa-18d8-4d21-a246-425d4d2d7a0c"
        string_val: "446fa06a-122b-4ee7-9dea-9ae18332dd87"
        string_val: "bbe21408-c73e-432f-bcd3-5bad98ba1575"
        string_val: "9913dd4b-9332-4465-8c80-11b734250046"
        string_val: "9913dd4b-9332-4465-8c80-11b734250046"
        string_val: "bbe21408-c73e-432f-bcd3-5bad98ba1575"
        string_val: "89d45c34-5262-49c1-b1da-4587b8713d13"
        string_val: "89d45c34-5262-49c1-b1da-4587b8713d13"
        string_val: "d286c0bf-6534-4fcf-b60a-b97a91d97b72"
        string_val: "3effb6f4-e643-4a23-874a-8cbef1adfc7c"
        string_val: "6573e03b-9e85-4506-82d0-c3d6be82be48"
        string_val: "6573e03b-9e85-4506-82d0-c3d6be82be48"
        string_val: "5288752e-802c-45db-a87f-27ad3b6a511a"
        string_val: "a82c895b-46da-4230-9ca7-bbf3918d99df"
        string_val: "a82c895b-46da-4230-9ca7-bbf3918d99df"
        string_val: "e625d96c-7a4f-404c-9f0e-64497b594ee7"
        string_val: "f4f08982-6264-4ee8-abed-7a7de531387c"
        string_val: "12566dfe-5818-44a3-868b-14e6ab6c87e5"
        string_val: "a3aa3eb1-3962-4641-a53f-c337054c0841"
        string_val: "a3aa3eb1-3962-4641-a53f-c337054c0841"
        string_val: "fab9af29-a8c7-4473-b237-80314ac6bc25"
        string_val: "fab9af29-a8c7-4473-b237-80314ac6bc25"
        string_val: "91d79c17-a953-42e6-86f6-498c7ff9a051"
        string_val: "91d79c17-a953-42e6-86f6-498c7ff9a051"
        string_val: "7e36e208-aaa3-4479-85c5-e886f9591988"
        string_val: "7e36e208-aaa3-4479-85c5-e886f9591988"
        string_val: "81e5652e-3d2a-4393-bf78-4af6ce17a781"
        string_val: "81e5652e-3d2a-4393-bf78-4af6ce17a781"
      }
    }
  }
}
node {
  name: "tensors/component_1"
  op: "Const"
  device: "/device:CPU:0"
  attr {
    key: "_output_shapes"
    value {
      list {
        shape {
          dim {
            size: 75
          }
        }
      }
    }
  }
  attr {
    key: "dtype"
    value {
      type: DT_STRING
    }
  }
  attr {
    key: "value"
    value {
      tensor {
        dtype: DT_STRING
        tensor_shape {
          dim {
            size: 75
          }
        }
        string_val: "fac85871-4daf-422f-ad55-e8b00d9141d3"
        string_val: "fac85871-4daf-422f-ad55-e8b00d9141d3"
        string_val: "fef93412-e52f-4ff7-82f3-584b1a2dcb08"
        string_val: "fef93412-e52f-4ff7-82f3-584b1a2dcb08"
        string_val: "649d8177-712b-44ab-a37d-a0986a047814"
        string_val: "649d8177-712b-44ab-a37d-a0986a047814"
        string_val: "e33bea12-ef36-485c-ac73-db635854b5fb"
        string_val: "a070685b-b38f-4e72-8ba5-895828e77abf"
        string_val: "cc8cd6f8-a07d-4ee2-962f-16958648eb6d"
        string_val: "a070685b-b38f-4e72-8ba5-895828e77abf"
        string_val: "3250fe9b-1a28-4500-8660-169c18351be8"
        string_val: "75ce2f31-04ae-425d-b3f1-2f32e2c51402"
        string_val: "1c0d6173-171c-48a0-8821-be2802c94e64"
        string_val: "75ce2f31-04ae-425d-b3f1-2f32e2c51402"
        string_val: "1c0d6173-171c-48a0-8821-be2802c94e64"
        string_val: "4b91a4a4-b753-4625-8d27-e09ae83103be"
        string_val: "4b91a4a4-b753-4625-8d27-e09ae83103be"
        string_val: "46dec5e5-2ee1-45ab-bcdf-d92e637e101b"
        string_val: "14e3d16b-e884-48ec-96ad-af8cf482a05c"
        string_val: "a162ba9f-53d0-4f7a-a48e-f4e73d5f60f8"
        string_val: "3632c38d-6c5b-456e-a7e8-ccf3a5637f3a"
        string_val: "5946660f-7082-448f-963d-9c486fd41e90"
        string_val: "2c371cd2-4244-4910-9c0c-5ba20c935e9a"
        string_val: "5946660f-7082-448f-963d-9c486fd41e90"
        string_val: "2c371cd2-4244-4910-9c0c-5ba20c935e9a"
        string_val: "f3144a24-b45b-4f42-b5a8-56b4b9a305bf"
        string_val: "6b6eb79e-0b35-41a4-b330-f64bbf94459f"
        string_val: "6b6eb79e-0b35-41a4-b330-f64bbf94459f"
        string_val: "b0d48bed-482d-4ff9-afcf-0954d5b6ea04"
        string_val: "897e9f36-6cba-481e-97ba-e31242e2906f"
        string_val: "f0a92221-59a9-42fe-84c9-9d50c43b46dc"
        string_val: "f0a92221-59a9-42fe-84c9-9d50c43b46dc"
        string_val: "7f0946e6-cf47-4278-b777-c11f9e485322"
        string_val: "7f0946e6-cf47-4278-b777-c11f9e485322"
        string_val: "35b121ee-41ea-448b-bb15-cc5aec5df8cc"
        string_val: "35b121ee-41ea-448b-bb15-cc5aec5df8cc"
        string_val: "2edaf97b-2b2f-4ad4-9264-be8926279088"
        string_val: "2edaf97b-2b2f-4ad4-9264-be8926279088"
        string_val: "35b121ee-41ea-448b-bb15-cc5aec5df8cc"
        string_val: "35b121ee-41ea-448b-bb15-cc5aec5df8cc"
        string_val: "fef93412-e52f-4ff7-82f3-584b1a2dcb08"
        string_val: "fef93412-e52f-4ff7-82f3-584b1a2dcb08"
        string_val: "5946660f-7082-448f-963d-9c486fd41e90"
        string_val: "5946660f-7082-448f-963d-9c486fd41e90"
        string_val: "6b6eb79e-0b35-41a4-b330-f64bbf94459f"
        string_val: "6b6eb79e-0b35-41a4-b330-f64bbf94459f"
        string_val: "a4e69044-2108-4c59-9d11-60683e74d754"
        string_val: "897e9f36-6cba-481e-97ba-e31242e2906f"
        string_val: "c85c72d3-edf8-4e76-a082-ae5304f866e3"
        string_val: "2edaf97b-2b2f-4ad4-9264-be8926279088"
        string_val: "7f0946e6-cf47-4278-b777-c11f9e485322"
        string_val: "7f0946e6-cf47-4278-b777-c11f9e485322"
        string_val: "2edaf97b-2b2f-4ad4-9264-be8926279088"
        string_val: "2c371cd2-4244-4910-9c0c-5ba20c935e9a"
        string_val: "2c371cd2-4244-4910-9c0c-5ba20c935e9a"
        string_val: "a162ba9f-53d0-4f7a-a48e-f4e73d5f60f8"
        string_val: "e33bea12-ef36-485c-ac73-db635854b5fb"
        string_val: "fac85871-4daf-422f-ad55-e8b00d9141d3"
        string_val: "fac85871-4daf-422f-ad55-e8b00d9141d3"
        string_val: "755acc56-d900-4773-986d-b88305511278"
        string_val: "75ce2f31-04ae-425d-b3f1-2f32e2c51402"
        string_val: "75ce2f31-04ae-425d-b3f1-2f32e2c51402"
        string_val: "918a3ba0-df98-447b-8e7f-48f6324f0ef7"
        string_val: "14e3d16b-e884-48ec-96ad-af8cf482a05c"
        string_val: "98f532d8-8512-44b7-b200-3a655b796c78"
        string_val: "a070685b-b38f-4e72-8ba5-895828e77abf"
        string_val: "a070685b-b38f-4e72-8ba5-895828e77abf"
        string_val: "cc8cd6f8-a07d-4ee2-962f-16958648eb6d"
        string_val: "cc8cd6f8-a07d-4ee2-962f-16958648eb6d"
        string_val: "7405f628-6380-4a73-a42e-f8ccea65149f"
        string_val: "7405f628-6380-4a73-a42e-f8ccea65149f"
        string_val: "4b91a4a4-b753-4625-8d27-e09ae83103be"
        string_val: "4b91a4a4-b753-4625-8d27-e09ae83103be"
        string_val: "1c0d6173-171c-48a0-8821-be2802c94e64"
        string_val: "1c0d6173-171c-48a0-8821-be2802c94e64"
      }
    }
  }
}
node {
  name: "tensors/component_2"
  op: "Const"
  device: "/device:CPU:0"
  attr {
    key: "_output_shapes"
    value {
      list {
        shape {
          dim {
            size: 75
          }
        }
      }
    }
  }
  attr {
    key: "dtype"
    value {
      type: DT_STRING
    }
  }
  attr {
    key: "value"
    value {
      tensor {
        dtype: DT_STRING
        tensor_shape {
          dim {
            size: 75
          }
        }
        string_val: "4261acdf-51cb-47e0-8150-92f9207d5242"
        string_val: "4261acdf-51cb-47e0-8150-92f9207d5242"
        string_val: "b8cefd74-4cdc-4f83-9975-b60cddce817e"
        string_val: "b8cefd74-4cdc-4f83-9975-b60cddce817e"
        string_val: "51054b71-f1a9-4397-ba0c-295a1287c32a"
        string_val: "51054b71-f1a9-4397-ba0c-295a1287c32a"
        string_val: "9f365700-264b-4825-a904-b10e370a6fc0"
        string_val: "e934a3bd-1ffd-4ae6-9278-3acfa42b199a"
        string_val: "464aac5d-8fa2-4c5e-bbee-613e21ba7b47"
        string_val: "e934a3bd-1ffd-4ae6-9278-3acfa42b199a"
        string_val: "8891ad2f-8e75-405f-9cf4-778a5f890e0e"
        string_val: "7c557516-0e60-4388-9572-9ec84ce8dd93"
        string_val: "946d52dd-f69b-4803-9729-294939cb96f8"
        string_val: "7c557516-0e60-4388-9572-9ec84ce8dd93"
        string_val: "946d52dd-f69b-4803-9729-294939cb96f8"
        string_val: "3a2cdb03-0440-45f4-b298-459e70b0b8f2"
        string_val: "3a2cdb03-0440-45f4-b298-459e70b0b8f2"
        string_val: "df850d73-a9a8-4168-8357-b7cb2a7a6312"
        string_val: "40d87854-bf93-4d71-92c8-76ee939b297d"
        string_val: "99852fae-e5b3-4f9b-abba-631cae73572a"
        string_val: "9ca7f0da-05c1-4011-a09c-62a4d250f1d9"
        string_val: "420c3a13-2852-4b68-8885-c766ac240613"
        string_val: "9ce66be8-88b1-45e5-aa1d-9cbf889ddd35"
        string_val: "420c3a13-2852-4b68-8885-c766ac240613"
        string_val: "9ce66be8-88b1-45e5-aa1d-9cbf889ddd35"
        string_val: "ab026022-5848-4266-9c9d-93ceb94f9174"
        string_val: "2c020e3d-8b55-4749-88a4-573e21eba931"
        string_val: "2c020e3d-8b55-4749-88a4-573e21eba931"
        string_val: "0090c958-3edd-4651-9c6a-d3623506bd78"
        string_val: "76118642-e56a-4c64-92f9-fe1ab5dc07a0"
        string_val: "35b1a00a-caea-4759-a614-87e42ed6d868"
        string_val: "35b1a00a-caea-4759-a614-87e42ed6d868"
        string_val: "7465d9b1-e46f-4427-b49e-a7da2aba20e2"
        string_val: "7465d9b1-e46f-4427-b49e-a7da2aba20e2"
        string_val: "19f4d537-427a-4ae4-adf6-b2885ba9e62a"
        string_val: "19f4d537-427a-4ae4-adf6-b2885ba9e62a"
        string_val: "022e8ca9-e697-4ff4-90b0-037b08dd61a1"
        string_val: "022e8ca9-e697-4ff4-90b0-037b08dd61a1"
        string_val: "53df9637-5b69-435c-8514-5bf4864d18f0"
        string_val: "53df9637-5b69-435c-8514-5bf4864d18f0"
        string_val: "8e0aae7a-4e70-4820-a04d-2ec1065a6978"
        string_val: "8e0aae7a-4e70-4820-a04d-2ec1065a6978"
        string_val: "f39b6447-b4e5-44f9-ab8d-702e9ecad526"
        string_val: "f39b6447-b4e5-44f9-ab8d-702e9ecad526"
        string_val: "7f979b13-7c1a-4e4d-acd3-f43470279389"
        string_val: "7f979b13-7c1a-4e4d-acd3-f43470279389"
        string_val: "161b9e1d-eb0b-4ab7-a296-71d09164124f"
        string_val: "76118642-e56a-4c64-92f9-fe1ab5dc07a0"
        string_val: "dad1df69-62c3-41f6-a557-9fef78ec19da"
        string_val: "31aa2d9f-b3e7-499f-b9ba-f2c93b83c880"
        string_val: "7465d9b1-e46f-4427-b49e-a7da2aba20e2"
        string_val: "7465d9b1-e46f-4427-b49e-a7da2aba20e2"
        string_val: "31aa2d9f-b3e7-499f-b9ba-f2c93b83c880"
        string_val: "3627e2f6-2675-458b-ad0d-2d4ff3da7210"
        string_val: "3627e2f6-2675-458b-ad0d-2d4ff3da7210"
        string_val: "dd270eb1-d475-4797-af29-e06d80e18fde"
        string_val: "9f365700-264b-4825-a904-b10e370a6fc0"
        string_val: "04122407-cf9c-4d1b-bae5-dc405ef22168"
        string_val: "04122407-cf9c-4d1b-bae5-dc405ef22168"
        string_val: "55de6968-d253-4989-886f-ea89b879322c"
        string_val: "1068e500-a147-4487-aa88-ce9f6ccbe54c"
        string_val: "1068e500-a147-4487-aa88-ce9f6ccbe54c"
        string_val: "4925c7c5-9ab1-4ccb-b7fb-8e04e870c096"
        string_val: "a78068dd-298e-4630-a040-ce36b622b467"
        string_val: "4c2c6d31-f85f-4df1-9983-249e401d6b5c"
        string_val: "fbafacac-ccc7-4f6e-97a3-2a4ec8be2362"
        string_val: "fbafacac-ccc7-4f6e-97a3-2a4ec8be2362"
        string_val: "7615109f-0a7b-4418-8cde-0d4b6e68ae5c"
        string_val: "7615109f-0a7b-4418-8cde-0d4b6e68ae5c"
        string_val: "2c28418b-f2e7-4014-aeae-454d64c7e364"
        string_val: "2c28418b-f2e7-4014-aeae-454d64c7e364"
        string_val: "3a2cdb03-0440-45f4-b298-459e70b0b8f2"
        string_val: "3a2cdb03-0440-45f4-b298-459e70b0b8f2"
        string_val: "2ec3d74d-336c-4fdf-ad5d-e2feaccce79c"
        string_val: "2ec3d74d-336c-4fdf-ad5d-e2feaccce79c"
      }
    }
  }
}
node {
  name: "tensors/component_3"
  op: "Const"
  device: "/device:CPU:0"
  attr {
    key: "_output_shapes"
    value {
      list {
        shape {
          dim {
            size: 75
          }
        }
      }
    }
  }
  attr {
    key: "dtype"
    value {
      type: DT_STRING
    }
  }
  attr {
    key: "value"
    value {
      tensor {
        dtype: DT_STRING
        tensor_shape {
          dim {
            size: 75
          }
        }
        string_val: "6184e577-c5cb-4cc3-a483-c766fa6deae1"
        string_val: "6184e577-c5cb-4cc3-a483-c766fa6deae1"
        string_val: "825d72bd-440e-4712-8d29-12e84e597984"
        string_val: "825d72bd-440e-4712-8d29-12e84e597984"
        string_val: "8ebcea9c-62a8-4a11-bf0b-6cc9527f2eaa"
        string_val: "8ebcea9c-62a8-4a11-bf0b-6cc9527f2eaa"
        string_val: "1ee0bc44-d7ed-45d2-aa1d-1d1545a0f287"
        string_val: "fefaaaf4-6fbe-4606-9f94-421cefe808fe"
        string_val: "0e44523a-be15-45de-a571-29919a7b39c6"
        string_val: "fefaaaf4-6fbe-4606-9f94-421cefe808fe"
        string_val: "099654c1-19aa-48de-b64d-eb817543e5b2"
        string_val: "1068e500-a147-4487-aa88-ce9f6ccbe54c"
        string_val: "18111097-6bf6-40cd-8e3a-c814c00c6ea8"
        string_val: "1068e500-a147-4487-aa88-ce9f6ccbe54c"
        string_val: "18111097-6bf6-40cd-8e3a-c814c00c6ea8"
        string_val: "74fdc492-237e-4a3b-abbb-ae6d768aacec"
        string_val: "74fdc492-237e-4a3b-abbb-ae6d768aacec"
        string_val: "f91adfd1-e838-4c12-8464-e8a4ef33ecbe"
        string_val: "45a29d0a-a3c2-4a01-8fb3-9f00259b0ee7"
        string_val: "dd270eb1-d475-4797-af29-e06d80e18fde"
        string_val: "fad3d9c9-f99e-47b6-bef9-6c87fbf85ce6"
        string_val: "a5441dc5-ab6a-4a5b-aa06-d13b658e97e4"
        string_val: "c2878d86-f830-413d-83fe-a9c46d8c7c84"
        string_val: "a5441dc5-ab6a-4a5b-aa06-d13b658e97e4"
        string_val: "c2878d86-f830-413d-83fe-a9c46d8c7c84"
        string_val: "16bb3ea9-0bc9-455c-8513-7441a3a9ebb7"
        string_val: "3e1a9e0a-b52a-4438-9530-05f1937cdc0d"
        string_val: "3e1a9e0a-b52a-4438-9530-05f1937cdc0d"
        string_val: "69442a9b-007b-4cb1-af4c-37d937f293a2"
        string_val: "f2d27328-ed60-49d8-b484-d32cdf93ac92"
        string_val: "5e0f30e0-35a2-44bb-8972-b457417b3e1d"
        string_val: "5e0f30e0-35a2-44bb-8972-b457417b3e1d"
        string_val: "1157d73d-6c06-4eef-a5f9-e6a77b0d58cb"
        string_val: "1157d73d-6c06-4eef-a5f9-e6a77b0d58cb"
        string_val: "53df9637-5b69-435c-8514-5bf4864d18f0"
        string_val: "53df9637-5b69-435c-8514-5bf4864d18f0"
        string_val: "94e86fbf-0f28-4a59-b330-5f2ecb4201a6"
        string_val: "94e86fbf-0f28-4a59-b330-5f2ecb4201a6"
        string_val: "77a0ca3c-5907-45b5-a079-226012215638"
        string_val: "77a0ca3c-5907-45b5-a079-226012215638"
        string_val: "e0a157b1-e798-4f6c-8950-6ebcb1d6ea16"
        string_val: "e0a157b1-e798-4f6c-8950-6ebcb1d6ea16"
        string_val: "9c773594-ec07-4f96-82e6-2ed4096f1cea"
        string_val: "9c773594-ec07-4f96-82e6-2ed4096f1cea"
        string_val: "0977b875-b240-45c5-9b5d-a26608636311"
        string_val: "0977b875-b240-45c5-9b5d-a26608636311"
        string_val: "27c854ce-2eab-4d93-baaf-63179415443d"
        string_val: "d98b0deb-c2b5-44ce-aef5-f8e1b0d4aecb"
        string_val: "22f9cad9-e3a0-4fa5-8bc2-6d2e6fc9502c"
        string_val: "022e8ca9-e697-4ff4-90b0-037b08dd61a1"
        string_val: "1157d73d-6c06-4eef-a5f9-e6a77b0d58cb"
        string_val: "1157d73d-6c06-4eef-a5f9-e6a77b0d58cb"
        string_val: "022e8ca9-e697-4ff4-90b0-037b08dd61a1"
        string_val: "463029dd-64fe-431b-ad95-90bad2b4babb"
        string_val: "463029dd-64fe-431b-ad95-90bad2b4babb"
        string_val: "dbd2a0f3-9a91-49b3-999b-c6d5e50a37cd"
        string_val: "1ee0bc44-d7ed-45d2-aa1d-1d1545a0f287"
        string_val: "6184e577-c5cb-4cc3-a483-c766fa6deae1"
        string_val: "6184e577-c5cb-4cc3-a483-c766fa6deae1"
        string_val: "910f8b92-f33e-4c12-b92b-a5e0f4e8d3a6"
        string_val: "7c557516-0e60-4388-9572-9ec84ce8dd93"
        string_val: "7c557516-0e60-4388-9572-9ec84ce8dd93"
        string_val: "89b1c2cc-4cd7-4b32-8698-4256b0822d68"
        string_val: "40d87854-bf93-4d71-92c8-76ee939b297d"
        string_val: "52463b7b-d145-4181-aa98-9e85eb0b3512"
        string_val: "282a3ce3-7903-4377-b620-439bdc111ce8"
        string_val: "282a3ce3-7903-4377-b620-439bdc111ce8"
        string_val: "26a84281-0e22-46b3-9677-670d659ef3df"
        string_val: "26a84281-0e22-46b3-9677-670d659ef3df"
        string_val: "d4a6749b-5813-4a6d-a0c3-d9473c778772"
        string_val: "d4a6749b-5813-4a6d-a0c3-d9473c778772"
        string_val: "67f148e4-c663-40cf-8c14-89781a7987a0"
        string_val: "67f148e4-c663-40cf-8c14-89781a7987a0"
        string_val: "946d52dd-f69b-4803-9729-294939cb96f8"
        string_val: "946d52dd-f69b-4803-9729-294939cb96f8"
      }
    }
  }
}
node {
  name: "tensors/component_4"
  op: "Const"
  device: "/device:CPU:0"
  attr {
    key: "_output_shapes"
    value {
      list {
        shape {
          dim {
            size: 75
          }
        }
      }
    }
  }
  attr {
    key: "dtype"
    value {
      type: DT_STRING
    }
  }
  attr {
    key: "value"
    value {
      tensor {
        dtype: DT_STRING
        tensor_shape {
          dim {
            size: 75
          }
        }
        string_val: "279c83c7-c00e-4758-b285-5127ae5133c5"
        string_val: "279c83c7-c00e-4758-b285-5127ae5133c5"
        string_val: "d54d35d1-583d-4bda-b125-789bbc3e9c08"
        string_val: "d54d35d1-583d-4bda-b125-789bbc3e9c08"
        string_val: "209f5539-e6e4-4c2f-95bc-3ee4ba8fd138"
        string_val: "209f5539-e6e4-4c2f-95bc-3ee4ba8fd138"
        string_val: "2a47e1a6-af84-4169-8e22-0eb2d8617d12"
        string_val: "5e34f52a-f2ca-4cdd-aa34-1f9a377e5263"
        string_val: "a008eec2-b9a3-4074-a37c-8c6864b22400"
        string_val: "5e34f52a-f2ca-4cdd-aa34-1f9a377e5263"
        string_val: "212e5f24-8522-4a0d-897e-eccc39608555"
        string_val: "27874ca0-9d09-4493-97cb-02710999ac56"
        string_val: "cb1f2a76-b6e1-455c-9696-ac3d80607ec3"
        string_val: "27874ca0-9d09-4493-97cb-02710999ac56"
        string_val: "cb1f2a76-b6e1-455c-9696-ac3d80607ec3"
        string_val: "696132c9-1f6f-41c2-8caf-c80a4e81ed0f"
        string_val: "696132c9-1f6f-41c2-8caf-c80a4e81ed0f"
        string_val: "00685d82-1cc2-4ce9-860d-dced23be5e00"
        string_val: "d23431be-6e4f-4f2c-a906-19a05561e8e0"
        string_val: "10d9969d-4baf-4c46-b828-b6ba05f92cc3"
        string_val: "c323327b-8865-44b5-b374-910374089518"
        string_val: "ce98a22e-2ffc-4bae-9062-91975a340c30"
        string_val: "9010d82c-20de-4ea4-afc6-accb156b311b"
        string_val: "ce98a22e-2ffc-4bae-9062-91975a340c30"
        string_val: "9010d82c-20de-4ea4-afc6-accb156b311b"
        string_val: "94a299dc-7a5f-4c20-8f8e-4f0895fe8410"
        string_val: "cdd44a57-2a8a-4520-a377-8bbbe90dcf72"
        string_val: "cdd44a57-2a8a-4520-a377-8bbbe90dcf72"
        string_val: "f49c428c-62e1-4bf2-9875-7ed6ba6ec8b6"
        string_val: "0a99d1ab-8e8d-4527-83e9-6589c17d4f9d"
        string_val: "07b0de07-9a1b-4e14-a21a-9cb4e8a11002"
        string_val: "07b0de07-9a1b-4e14-a21a-9cb4e8a11002"
        string_val: "340f07fa-b5e8-4fd0-9fca-60b2f7304123"
        string_val: "340f07fa-b5e8-4fd0-9fca-60b2f7304123"
        string_val: "b5d6c116-6f3a-4cde-a058-14efb0110392"
        string_val: "b5d6c116-6f3a-4cde-a058-14efb0110392"
        string_val: "59df29de-d8ec-4bfc-b2ed-623d6e81c74a"
        string_val: "59df29de-d8ec-4bfc-b2ed-623d6e81c74a"
        string_val: "b5d6c116-6f3a-4cde-a058-14efb0110392"
        string_val: "b5d6c116-6f3a-4cde-a058-14efb0110392"
        string_val: "d54d35d1-583d-4bda-b125-789bbc3e9c08"
        string_val: "d54d35d1-583d-4bda-b125-789bbc3e9c08"
        string_val: "ce98a22e-2ffc-4bae-9062-91975a340c30"
        string_val: "ce98a22e-2ffc-4bae-9062-91975a340c30"
        string_val: "cdd44a57-2a8a-4520-a377-8bbbe90dcf72"
        string_val: "cdd44a57-2a8a-4520-a377-8bbbe90dcf72"
        string_val: "b2a93f23-4d3a-48b7-97d6-c09aed2e253f"
        string_val: "2d8d9dbb-5f90-4774-8302-d3673c63f1f5"
        string_val: "70fe2d0c-eab6-40ae-8286-07f4094e111a"
        string_val: "59df29de-d8ec-4bfc-b2ed-623d6e81c74a"
        string_val: "340f07fa-b5e8-4fd0-9fca-60b2f7304123"
        string_val: "340f07fa-b5e8-4fd0-9fca-60b2f7304123"
        string_val: "59df29de-d8ec-4bfc-b2ed-623d6e81c74a"
        string_val: "9010d82c-20de-4ea4-afc6-accb156b311b"
        string_val: "9010d82c-20de-4ea4-afc6-accb156b311b"
        string_val: "10d9969d-4baf-4c46-b828-b6ba05f92cc3"
        string_val: "2a47e1a6-af84-4169-8e22-0eb2d8617d12"
        string_val: "dd58767c-c0ed-4394-a096-452587490dd9"
        string_val: "dd58767c-c0ed-4394-a096-452587490dd9"
        string_val: "d312f31d-42bd-44d4-8031-5827cec74693"
        string_val: "a2ff6d53-29f7-4b8d-bbaf-2a3b6766a97d"
        string_val: "a2ff6d53-29f7-4b8d-bbaf-2a3b6766a97d"
        string_val: "7438fcb4-759a-4615-830d-59493e8be8ac"
        string_val: "d23431be-6e4f-4f2c-a906-19a05561e8e0"
        string_val: "8cefb673-e564-4faa-ac0a-df5103880124"
        string_val: "5e34f52a-f2ca-4cdd-aa34-1f9a377e5263"
        string_val: "5e34f52a-f2ca-4cdd-aa34-1f9a377e5263"
        string_val: "138c9eab-769c-436d-9b0f-43bfa0969a45"
        string_val: "138c9eab-769c-436d-9b0f-43bfa0969a45"
        string_val: "07b0de07-9a1b-4e14-a21a-9cb4e8a11002"
        string_val: "07b0de07-9a1b-4e14-a21a-9cb4e8a11002"
        string_val: "516a4569-7402-4433-bac8-4edf78d76f08"
        string_val: "516a4569-7402-4433-bac8-4edf78d76f08"
        string_val: "cb1f2a76-b6e1-455c-9696-ac3d80607ec3"
        string_val: "cb1f2a76-b6e1-455c-9696-ac3d80607ec3"
      }
    }
  }
}
node {
  name: "tensors/component_5"
  op: "Const"
  device: "/device:CPU:0"
  attr {
    key: "_output_shapes"
    value {
      list {
        shape {
          dim {
            size: 75
          }
        }
      }
    }
  }
  attr {
    key: "dtype"
    value {
      type: DT_STRING
    }
  }
  attr {
    key: "value"
    value {
      tensor {
        dtype: DT_STRING
        tensor_shape {
          dim {
            size: 75
          }
        }
        string_val: "47d65ed7-64a7-4205-8223-c16e3db52b65"
        string_val: "47d65ed7-64a7-4205-8223-c16e3db52b65"
        string_val: "3a86ecd4-4d70-466e-be6c-c939a0701e99"
        string_val: "3a86ecd4-4d70-466e-be6c-c939a0701e99"
        string_val: "00220be9-2c18-4113-9b5d-fc8ea4c64bc3"
        string_val: "00220be9-2c18-4113-9b5d-fc8ea4c64bc3"
        string_val: "be3511fc-bc84-43e4-be2d-f457a3d46cc7"
        string_val: "c89711d2-783a-45d4-918b-de1250f32f13"
        string_val: "2395bd40-23ec-43c1-afe3-1c7e420014ac"
        string_val: "c89711d2-783a-45d4-918b-de1250f32f13"
        string_val: "2bdf8c27-fb33-49c3-898f-e2fd7d1346fc"
        string_val: "0d96be71-3075-49d3-b6a7-3a304739d517"
        string_val: "cb83c62d-41c1-4bed-8f0f-1ea9d36880dc"
        string_val: "0d96be71-3075-49d3-b6a7-3a304739d517"
        string_val: "cb83c62d-41c1-4bed-8f0f-1ea9d36880dc"
        string_val: "f7b1ae30-2c3e-4478-8ed7-1f680539d136"
        string_val: "f7b1ae30-2c3e-4478-8ed7-1f680539d136"
        string_val: "6f8bbdf8-6ce0-4f58-8e42-1ac2be852903"
        string_val: "f3bc94b0-54a3-494b-bdeb-8d55ba722cd2"
        string_val: "1003f1d0-e38e-4904-b16b-bcbfd85d2f1d"
        string_val: "6f3cdf62-2fe0-47a7-9a1d-721739ebd3ec"
        string_val: "65748b77-ff58-448a-b782-d7c20098fa8a"
        string_val: "ddfa347f-f072-4bce-964b-2757f22ea107"
        string_val: "65748b77-ff58-448a-b782-d7c20098fa8a"
        string_val: "ddfa347f-f072-4bce-964b-2757f22ea107"
        string_val: "45fc89d1-bfff-43a0-9a4f-58257be9cc90"
        string_val: "94a11ce9-2275-46b3-8f9c-17325dea2ce6"
        string_val: "94a11ce9-2275-46b3-8f9c-17325dea2ce6"
        string_val: "b2a93f23-4d3a-48b7-97d6-c09aed2e253f"
        string_val: "3bd36098-e917-4217-8345-14ff6e964e84"
        string_val: "fed60ff8-a418-47dd-96c0-8f116b61a6f0"
        string_val: "fed60ff8-a418-47dd-96c0-8f116b61a6f0"
        string_val: "3fe21acc-bed2-477b-be2c-ee9db9b624ad"
        string_val: "3fe21acc-bed2-477b-be2c-ee9db9b624ad"
        string_val: "4bb2cea3-1af3-4eed-880d-ffb0b613c507"
        string_val: "4bb2cea3-1af3-4eed-880d-ffb0b613c507"
        string_val: "75e535a7-f0e7-40b0-82ba-ce9571b78b56"
        string_val: "75e535a7-f0e7-40b0-82ba-ce9571b78b56"
        string_val: "4bb2cea3-1af3-4eed-880d-ffb0b613c507"
        string_val: "4bb2cea3-1af3-4eed-880d-ffb0b613c507"
        string_val: "35f9d71b-d618-4932-b7bf-921a10df736f"
        string_val: "35f9d71b-d618-4932-b7bf-921a10df736f"
        string_val: "65748b77-ff58-448a-b782-d7c20098fa8a"
        string_val: "65748b77-ff58-448a-b782-d7c20098fa8a"
        string_val: "04a462e5-4bad-4eb7-a461-376da7151221"
        string_val: "04a462e5-4bad-4eb7-a461-376da7151221"
        string_val: "1ad52b00-f783-4a9d-87c9-f267cbe66b3b"
        string_val: "3bd36098-e917-4217-8345-14ff6e964e84"
        string_val: "59ef68ff-b290-41d6-bf59-a3ac7c15e018"
        string_val: "75e535a7-f0e7-40b0-82ba-ce9571b78b56"
        string_val: "0bfdc658-844e-4b09-b55e-436561c00528"
        string_val: "0bfdc658-844e-4b09-b55e-436561c00528"
        string_val: "75e535a7-f0e7-40b0-82ba-ce9571b78b56"
        string_val: "4795405d-0401-43d7-a06a-06febc88f8dd"
        string_val: "4795405d-0401-43d7-a06a-06febc88f8dd"
        string_val: "d62a3ff7-2a52-4668-9ba2-fa6b56b54701"
        string_val: "be3511fc-bc84-43e4-be2d-f457a3d46cc7"
        string_val: "279c83c7-c00e-4758-b285-5127ae5133c5"
        string_val: "279c83c7-c00e-4758-b285-5127ae5133c5"
        string_val: "939efa2d-61cd-4333-8dda-58b72a577f43"
        string_val: "0d96be71-3075-49d3-b6a7-3a304739d517"
        string_val: "0d96be71-3075-49d3-b6a7-3a304739d517"
        string_val: "2bac347c-5c4a-4a02-9b49-227041a2c977"
        string_val: "f3bc94b0-54a3-494b-bdeb-8d55ba722cd2"
        string_val: "b435ab17-37f6-43fe-a1bf-a07229d8f910"
        string_val: "d0e7b23d-5ba4-40c2-b910-b92eb1ffde05"
        string_val: "d0e7b23d-5ba4-40c2-b910-b92eb1ffde05"
        string_val: "2395bd40-23ec-43c1-afe3-1c7e420014ac"
        string_val: "2395bd40-23ec-43c1-afe3-1c7e420014ac"
        string_val: "fed60ff8-a418-47dd-96c0-8f116b61a6f0"
        string_val: "fed60ff8-a418-47dd-96c0-8f116b61a6f0"
        string_val: "f7b1ae30-2c3e-4478-8ed7-1f680539d136"
        string_val: "f7b1ae30-2c3e-4478-8ed7-1f680539d136"
        string_val: "cb83c62d-41c1-4bed-8f0f-1ea9d36880dc"
        string_val: "cb83c62d-41c1-4bed-8f0f-1ea9d36880dc"
      }
    }
  }
}
node {
  name: "tensors/component_6"
  op: "Const"
  device: "/device:CPU:0"
  attr {
    key: "_output_shapes"
    value {
      list {
        shape {
          dim {
            size: 75
          }
        }
      }
    }
  }
  attr {
    key: "dtype"
    value {
      type: DT_STRING
    }
  }
  attr {
    key: "value"
    value {
      tensor {
        dtype: DT_STRING
        tensor_shape {
          dim {
            size: 75
          }
        }
        string_val: "75b87260-1a60-416b-91ae-55c8b417c4a5"
        string_val: "75b87260-1a60-416b-91ae-55c8b417c4a5"
        string_val: "9146245c-b1ca-4813-b149-e2879202dc0c"
        string_val: "9146245c-b1ca-4813-b149-e2879202dc0c"
        string_val: "5530fdf6-4165-48e2-b1e6-d6e1fb76ce30"
        string_val: "5530fdf6-4165-48e2-b1e6-d6e1fb76ce30"
        string_val: "049050a5-8280-401b-80e4-8357e36b8f22"
        string_val: "96c730a1-9cb9-4a79-84b9-b76f9de44fa9"
        string_val: "7615109f-0a7b-4418-8cde-0d4b6e68ae5c"
        string_val: "96c730a1-9cb9-4a79-84b9-b76f9de44fa9"
        string_val: "f2cf934f-d17c-4790-8a79-dc7457fda890"
        string_val: "58ae1c80-36ce-4976-9523-fc747a6d4ff2"
        string_val: "11837ed7-5eef-44ee-a372-8c2c7235e79b"
        string_val: "58ae1c80-36ce-4976-9523-fc747a6d4ff2"
        string_val: "11837ed7-5eef-44ee-a372-8c2c7235e79b"
        string_val: "fe27cc57-0dd0-4db5-8912-fdcf1defd065"
        string_val: "fe27cc57-0dd0-4db5-8912-fdcf1defd065"
        string_val: "12b7192a-df38-45fd-a605-071c1f90f756"
        string_val: "6c9f33e5-dd45-44f7-8877-e68b7313791e"
        string_val: "95318d9a-57fd-4edd-a279-d7a0f53b5b57"
        string_val: "f877311f-e8b1-4202-9962-873b6f914854"
        string_val: "9e3543ba-3df8-4f9d-a570-502044f0342e"
        string_val: "ff2eb1b1-be49-4dab-aefe-24d2943d18b1"
        string_val: "9e3543ba-3df8-4f9d-a570-502044f0342e"
        string_val: "ff2eb1b1-be49-4dab-aefe-24d2943d18b1"
        string_val: "19394a11-ee35-4e44-b431-7ba2f8706d5e"
        string_val: "5b1c21c5-b786-43ff-b5fa-2ef87900f3eb"
        string_val: "5b1c21c5-b786-43ff-b5fa-2ef87900f3eb"
        string_val: "3e065c0c-7fce-412e-a486-c4970b272bef"
        string_val: "574b6cd9-dabb-4a5a-85ac-486c61c66027"
        string_val: "13ebb30b-e5bd-4d1b-8202-8c6fe0052675"
        string_val: "13ebb30b-e5bd-4d1b-8202-8c6fe0052675"
        string_val: "fbc5f164-e12a-495e-aff0-1bba1d27abfb"
        string_val: "fbc5f164-e12a-495e-aff0-1bba1d27abfb"
        string_val: "1e205043-ea2c-4ad0-b3cc-07c4f3bc29e0"
        string_val: "1e205043-ea2c-4ad0-b3cc-07c4f3bc29e0"
        string_val: "293d1bad-e4b8-470c-90be-20a58c3c5737"
        string_val: "293d1bad-e4b8-470c-90be-20a58c3c5737"
        string_val: "1e205043-ea2c-4ad0-b3cc-07c4f3bc29e0"
        string_val: "1e205043-ea2c-4ad0-b3cc-07c4f3bc29e0"
        string_val: "1f8168fa-94a7-4ad7-a8ff-fc84d99fc877"
        string_val: "1f8168fa-94a7-4ad7-a8ff-fc84d99fc877"
        string_val: "9e3543ba-3df8-4f9d-a570-502044f0342e"
        string_val: "9e3543ba-3df8-4f9d-a570-502044f0342e"
        string_val: "5b1c21c5-b786-43ff-b5fa-2ef87900f3eb"
        string_val: "5b1c21c5-b786-43ff-b5fa-2ef87900f3eb"
        string_val: "3e065c0c-7fce-412e-a486-c4970b272bef"
        string_val: "574b6cd9-dabb-4a5a-85ac-486c61c66027"
        string_val: "91aeba9b-518b-4bb0-b8b0-fbba1e741d66"
        string_val: "293d1bad-e4b8-470c-90be-20a58c3c5737"
        string_val: "fbc5f164-e12a-495e-aff0-1bba1d27abfb"
        string_val: "fbc5f164-e12a-495e-aff0-1bba1d27abfb"
        string_val: "293d1bad-e4b8-470c-90be-20a58c3c5737"
        string_val: "ff2eb1b1-be49-4dab-aefe-24d2943d18b1"
        string_val: "ff2eb1b1-be49-4dab-aefe-24d2943d18b1"
        string_val: "6bd9d5a3-c1d8-4544-b403-a2920008f7b3"
        string_val: "4d074cdc-19a0-43cb-9e56-ab39aa56a51a"
        string_val: "6c11cdfc-f152-4974-ac02-b8e5d10a6b36"
        string_val: "6c11cdfc-f152-4974-ac02-b8e5d10a6b36"
        string_val: "1e852fea-bf26-4b0c-a830-dafc650d331d"
        string_val: "98341f8e-7f68-4756-bf4d-de68c27c34b2"
        string_val: "98341f8e-7f68-4756-bf4d-de68c27c34b2"
        string_val: "6ba5af08-2e88-47cd-807c-0d8a1e12aea5"
        string_val: "0072b293-bc1d-4679-a59f-6df2d2e41e55"
        string_val: "5530fdf6-4165-48e2-b1e6-d6e1fb76ce30"
        string_val: "3b274300-5bb3-41ce-a7f2-612072d88905"
        string_val: "3b274300-5bb3-41ce-a7f2-612072d88905"
        string_val: "ee969cdc-05db-4c79-84be-76b69aa8cbd2"
        string_val: "ee969cdc-05db-4c79-84be-76b69aa8cbd2"
        string_val: "e5592bb0-31d4-40e6-8904-eda2b7fb6db5"
        string_val: "e5592bb0-31d4-40e6-8904-eda2b7fb6db5"
        string_val: "fe27cc57-0dd0-4db5-8912-fdcf1defd065"
        string_val: "fe27cc57-0dd0-4db5-8912-fdcf1defd065"
        string_val: "11837ed7-5eef-44ee-a372-8c2c7235e79b"
        string_val: "11837ed7-5eef-44ee-a372-8c2c7235e79b"
      }
    }
  }
}
node {
  name: "tensors/component_7"
  op: "Const"
  device: "/device:CPU:0"
  attr {
    key: "_output_shapes"
    value {
      list {
        shape {
          dim {
            size: 75
          }
        }
      }
    }
  }
  attr {
    key: "dtype"
    value {
      type: DT_STRING
    }
  }
  attr {
    key: "value"
    value {
      tensor {
        dtype: DT_STRING
        tensor_shape {
          dim {
            size: 75
          }
        }
        string_val: "c6888416-b6a1-4200-8d9c-08356fecbcc6"
        string_val: "c6888416-b6a1-4200-8d9c-08356fecbcc6"
        string_val: "0d44c3d1-5319-4c99-b05e-9112c0fd5edc"
        string_val: "0d44c3d1-5319-4c99-b05e-9112c0fd5edc"
        string_val: "7e2e655f-249f-4c29-ab7e-b82fd8c5d313"
        string_val: "7e2e655f-249f-4c29-ab7e-b82fd8c5d313"
        string_val: "87e478d1-e457-415d-9188-e6d181dafad8"
        string_val: "18fcf45b-2ab6-4294-89e6-bbfadf8acec3"
        string_val: "d57bcb9c-3520-4f96-a60d-043397858432"
        string_val: "18fcf45b-2ab6-4294-89e6-bbfadf8acec3"
        string_val: "a1378466-a028-40e6-868c-a8a597708936"
        string_val: "ee9507b7-0dbf-4d14-b49d-235fc4aa318c"
        string_val: "5633e6a8-a584-401f-9338-b3dd53f334fb"
        string_val: "ee9507b7-0dbf-4d14-b49d-235fc4aa318c"
        string_val: "5633e6a8-a584-401f-9338-b3dd53f334fb"
        string_val: "4b42cc16-6b77-43bb-82b6-5ab782ab5b93"
        string_val: "4b42cc16-6b77-43bb-82b6-5ab782ab5b93"
        string_val: "82e0de0d-a270-4c83-ba22-d319c15b41ee"
        string_val: "3b122d83-7eee-4892-9dd7-517a3bc13e8d"
        string_val: "6bd9d5a3-c1d8-4544-b403-a2920008f7b3"
        string_val: "cd669e8b-c5ff-4527-89a2-50e976aaa2d5"
        string_val: "d259d569-120e-4cf5-a107-7f84aaf11b33"
        string_val: "463029dd-64fe-431b-ad95-90bad2b4babb"
        string_val: "d259d569-120e-4cf5-a107-7f84aaf11b33"
        string_val: "463029dd-64fe-431b-ad95-90bad2b4babb"
        string_val: "db062cf1-afeb-43c3-ad24-2b71085e0fe8"
        string_val: "0977b875-b240-45c5-9b5d-a26608636311"
        string_val: "0977b875-b240-45c5-9b5d-a26608636311"
        string_val: "d66896f6-3652-4227-9e8d-6910f4e59e2f"
        string_val: "7a3afe61-2228-4d2c-92ea-9589c6b86c28"
        string_val: "94db0cf5-bf55-4aac-a8c5-1dd7a013a27b"
        string_val: "94db0cf5-bf55-4aac-a8c5-1dd7a013a27b"
        string_val: "47545df5-5d29-439a-98fd-bf3f471a9129"
        string_val: "47545df5-5d29-439a-98fd-bf3f471a9129"
        string_val: "fb2276fb-54fc-45fb-888f-1a00d28ee126"
        string_val: "fb2276fb-54fc-45fb-888f-1a00d28ee126"
        string_val: "0977b875-b240-45c5-9b5d-a26608636311"
        string_val: "0977b875-b240-45c5-9b5d-a26608636311"
        string_val: "fb2276fb-54fc-45fb-888f-1a00d28ee126"
        string_val: "fb2276fb-54fc-45fb-888f-1a00d28ee126"
        string_val: "0d44c3d1-5319-4c99-b05e-9112c0fd5edc"
        string_val: "0d44c3d1-5319-4c99-b05e-9112c0fd5edc"
        string_val: "d259d569-120e-4cf5-a107-7f84aaf11b33"
        string_val: "d259d569-120e-4cf5-a107-7f84aaf11b33"
        string_val: "d69a2f6c-11f0-4ff3-a4e8-d8b5c6065710"
        string_val: "d69a2f6c-11f0-4ff3-a4e8-d8b5c6065710"
        string_val: "d66896f6-3652-4227-9e8d-6910f4e59e2f"
        string_val: "7a3afe61-2228-4d2c-92ea-9589c6b86c28"
        string_val: "c468f41c-fb43-4bc6-9300-6e01a01b566d"
        string_val: "0977b875-b240-45c5-9b5d-a26608636311"
        string_val: "ab121103-90f3-45b1-975f-455b8bb6e885"
        string_val: "ab121103-90f3-45b1-975f-455b8bb6e885"
        string_val: "0977b875-b240-45c5-9b5d-a26608636311"
        string_val: "728a022f-b854-42c3-ad2d-7740cbf94802"
        string_val: "728a022f-b854-42c3-ad2d-7740cbf94802"
        string_val: "a077c389-bccb-4443-ba7d-03c8ea7bb2b4"
        string_val: "d5f1e9a6-ef22-416d-a14b-0e8c57cf029a"
        string_val: "efc769dd-f870-468c-89a3-66eeb584046d"
        string_val: "efc769dd-f870-468c-89a3-66eeb584046d"
        string_val: "82f4f281-9e62-4a25-bcf7-dba4cb07b68d"
        string_val: "ee9507b7-0dbf-4d14-b49d-235fc4aa318c"
        string_val: "ee9507b7-0dbf-4d14-b49d-235fc4aa318c"
        string_val: "1443c75b-1607-43cc-b1ee-c314f6effb63"
        string_val: "3b122d83-7eee-4892-9dd7-517a3bc13e8d"
        string_val: "7e2e655f-249f-4c29-ab7e-b82fd8c5d313"
        string_val: "18fcf45b-2ab6-4294-89e6-bbfadf8acec3"
        string_val: "18fcf45b-2ab6-4294-89e6-bbfadf8acec3"
        string_val: "32a2060c-c4f0-4b77-955c-f0b8befc6206"
        string_val: "32a2060c-c4f0-4b77-955c-f0b8befc6206"
        string_val: "94db0cf5-bf55-4aac-a8c5-1dd7a013a27b"
        string_val: "94db0cf5-bf55-4aac-a8c5-1dd7a013a27b"
        string_val: "4b42cc16-6b77-43bb-82b6-5ab782ab5b93"
        string_val: "4b42cc16-6b77-43bb-82b6-5ab782ab5b93"
        string_val: "5633e6a8-a584-401f-9338-b3dd53f334fb"
        string_val: "5633e6a8-a584-401f-9338-b3dd53f334fb"
      }
    }
  }
}
node {
  name: "tensors/component_8"
  op: "Const"
  device: "/device:CPU:0"
  attr {
    key: "_output_shapes"
    value {
      list {
        shape {
          dim {
            size: 75
          }
        }
      }
    }
  }
  attr {
    key: "dtype"
    value {
      type: DT_STRING
    }
  }
  attr {
    key: "value"
    value {
      tensor {
        dtype: DT_STRING
        tensor_shape {
          dim {
            size: 75
          }
        }
        string_val: "1d0a1570-0adc-4a9e-8278-b587cb570ba9"
        string_val: "1d0a1570-0adc-4a9e-8278-b587cb570ba9"
        string_val: "23b52f5e-f26f-46fd-a0dd-5db8d40ead50"
        string_val: "23b52f5e-f26f-46fd-a0dd-5db8d40ead50"
        string_val: "161b9e1d-eb0b-4ab7-a296-71d09164124f"
        string_val: "161b9e1d-eb0b-4ab7-a296-71d09164124f"
        string_val: "6abe528c-bc98-4c57-8e9c-217335d169b7"
        string_val: "3d64b21e-79a3-4b44-bbb3-7b5c7a5ca77c"
        string_val: "692765c2-9980-4e9d-9bc7-61761fb683e6"
        string_val: "3d64b21e-79a3-4b44-bbb3-7b5c7a5ca77c"
        string_val: "b37b871a-552b-4e4f-aa1c-d017716f6bd4"
        string_val: "ce98a22e-2ffc-4bae-9062-91975a340c30"
        string_val: "2e205f15-e7b3-4c65-b5af-a84fd0fab0ae"
        string_val: "ce98a22e-2ffc-4bae-9062-91975a340c30"
        string_val: "2e205f15-e7b3-4c65-b5af-a84fd0fab0ae"
        string_val: "e7b59013-370f-4d3f-934c-f1ce0e37f66c"
        string_val: "e7b59013-370f-4d3f-934c-f1ce0e37f66c"
        string_val: "ec180878-bc1d-40ed-92b5-fd6feb7778e0"
        string_val: "a78068dd-298e-4630-a040-ce36b622b467"
        string_val: "dbd2a0f3-9a91-49b3-999b-c6d5e50a37cd"
        string_val: "c67458dc-c14c-4c4f-816e-49a76ebb6d00"
        string_val: "03ef219d-a797-4831-af03-ccd852cfa42a"
        string_val: "db062cf1-afeb-43c3-ad24-2b71085e0fe8"
        string_val: "03ef219d-a797-4831-af03-ccd852cfa42a"
        string_val: "db062cf1-afeb-43c3-ad24-2b71085e0fe8"
        string_val: "1144f9b0-93fd-4f91-85a7-4bd658e58fc0"
        string_val: "9bc73ba2-01e3-4b8e-9414-d31760ac757e"
        string_val: "9bc73ba2-01e3-4b8e-9414-d31760ac757e"
        string_val: "0548898a-dd95-4061-8d30-2515c6149768"
        string_val: "3a5cd059-a5f1-477d-b0d6-ffa418c10be9"
        string_val: "581c0965-d3fa-4856-8953-6dbdd4bae9c7"
        string_val: "581c0965-d3fa-4856-8953-6dbdd4bae9c7"
        string_val: "9abf8b0c-a741-48d2-88aa-cea18fc4b823"
        string_val: "9abf8b0c-a741-48d2-88aa-cea18fc4b823"
        string_val: "f7aac008-221a-4e3b-a86f-72e74747244e"
        string_val: "f7aac008-221a-4e3b-a86f-72e74747244e"
        string_val: "64dc86ea-f0fc-4b63-a355-c86ce4ea61a0"
        string_val: "64dc86ea-f0fc-4b63-a355-c86ce4ea61a0"
        string_val: "f7aac008-221a-4e3b-a86f-72e74747244e"
        string_val: "f7aac008-221a-4e3b-a86f-72e74747244e"
        string_val: "34fc9a72-0c25-47f7-b673-34e9557cd1ea"
        string_val: "34fc9a72-0c25-47f7-b673-34e9557cd1ea"
        string_val: "2c0c0168-f85a-465f-a58b-2f76db0baef6"
        string_val: "2c0c0168-f85a-465f-a58b-2f76db0baef6"
        string_val: "9bc73ba2-01e3-4b8e-9414-d31760ac757e"
        string_val: "9bc73ba2-01e3-4b8e-9414-d31760ac757e"
        string_val: "0628ba8a-1d02-4899-828f-2d959db2aedd"
        string_val: "3a5cd059-a5f1-477d-b0d6-ffa418c10be9"
        string_val: "72f7c9a6-6224-4952-ab43-80a4c252dc64"
        string_val: "bd55075d-28c7-4a7c-aaf7-daf15aea7e2e"
        string_val: "5af4483b-28dd-4109-88e8-bd364cf2ca81"
        string_val: "5af4483b-28dd-4109-88e8-bd364cf2ca81"
        string_val: "bd55075d-28c7-4a7c-aaf7-daf15aea7e2e"
        string_val: "e6b321d3-6ea4-400a-9a30-b336d395aa17"
        string_val: "e6b321d3-6ea4-400a-9a30-b336d395aa17"
        string_val: "a7967765-365d-4094-8468-fbf1de74efa8"
        string_val: "06593de8-8bbd-479f-8590-e6632e2126dd"
        string_val: "1d0a1570-0adc-4a9e-8278-b587cb570ba9"
        string_val: "1d0a1570-0adc-4a9e-8278-b587cb570ba9"
        string_val: "4fcfed14-454e-4ab2-8bf8-080c226c752d"
        string_val: "ce98a22e-2ffc-4bae-9062-91975a340c30"
        string_val: "ce98a22e-2ffc-4bae-9062-91975a340c30"
        string_val: "0d9f6bd2-1313-46ee-adca-31f5094b36a7"
        string_val: "45a29d0a-a3c2-4a01-8fb3-9f00259b0ee7"
        string_val: "51054b71-f1a9-4397-ba0c-295a1287c32a"
        string_val: "3d64b21e-79a3-4b44-bbb3-7b5c7a5ca77c"
        string_val: "3d64b21e-79a3-4b44-bbb3-7b5c7a5ca77c"
        string_val: "fe71bb6b-af93-41a9-aedc-709ba855ace7"
        string_val: "fe71bb6b-af93-41a9-aedc-709ba855ace7"
        string_val: "2c903fa9-da32-4813-8736-673331a46a93"
        string_val: "2c903fa9-da32-4813-8736-673331a46a93"
        string_val: "e7b59013-370f-4d3f-934c-f1ce0e37f66c"
        string_val: "e7b59013-370f-4d3f-934c-f1ce0e37f66c"
        string_val: "2e205f15-e7b3-4c65-b5af-a84fd0fab0ae"
        string_val: "2e205f15-e7b3-4c65-b5af-a84fd0fab0ae"
      }
    }
  }
}
node {
  name: "tensors/component_9"
  op: "Const"
  device: "/device:CPU:0"
  attr {
    key: "_output_shapes"
    value {
      list {
        shape {
          dim {
            size: 75
          }
        }
      }
    }
  }
  attr {
    key: "dtype"
    value {
      type: DT_STRING
    }
  }
  attr {
    key: "value"
    value {
      tensor {
        dtype: DT_STRING
        tensor_shape {
          dim {
            size: 75
          }
        }
        string_val: "fc240611-89f2-426e-901e-ef0a2d9582a5"
        string_val: "fc240611-89f2-426e-901e-ef0a2d9582a5"
        string_val: "d97f3510-6049-46c7-a1c6-2d2d40ea9073"
        string_val: "d97f3510-6049-46c7-a1c6-2d2d40ea9073"
        string_val: "37875f23-d365-4881-8b53-b8f3f61e1f1d"
        string_val: "37875f23-d365-4881-8b53-b8f3f61e1f1d"
        string_val: "06593de8-8bbd-479f-8590-e6632e2126dd"
        string_val: "1e97c9e7-4696-45af-abf6-fad3b046df7b"
        string_val: "c4d29ad8-69cd-4ccb-8a26-a77a4d7ace83"
        string_val: "1e97c9e7-4696-45af-abf6-fad3b046df7b"
        string_val: "b741937c-05f8-46fe-b032-15094b0afe8e"
        string_val: "a268c323-5776-48c9-be2e-73cb6afa38de"
        string_val: "2d092d90-a33d-4578-ad75-edd9cfa7bb46"
        string_val: "a268c323-5776-48c9-be2e-73cb6afa38de"
        string_val: "2d092d90-a33d-4578-ad75-edd9cfa7bb46"
        string_val: "dd527eb6-627a-45c9-ae98-61377e6b1b2f"
        string_val: "dd527eb6-627a-45c9-ae98-61377e6b1b2f"
        string_val: "6f2d2623-134e-480e-8c99-c379353a02bc"
        string_val: "0e32b32c-0d2b-4693-8766-bd87953cbd54"
        string_val: "f0440f5d-2f17-4baa-9569-fbb7f2e24400"
        string_val: "edf0c164-419d-4c03-89b5-b904448d146f"
        string_val: "ec14a9e1-c66b-4da1-a0d0-5918f515c85d"
        string_val: "a05c0296-ea7e-43c6-b1d4-5e3cfb9ffd40"
        string_val: "ec14a9e1-c66b-4da1-a0d0-5918f515c85d"
        string_val: "a05c0296-ea7e-43c6-b1d4-5e3cfb9ffd40"
        string_val: "c323327b-8865-44b5-b374-910374089518"
        string_val: "ee4a8da4-849a-4843-9a9c-81a49336f933"
        string_val: "ee4a8da4-849a-4843-9a9c-81a49336f933"
        string_val: "0628ba8a-1d02-4899-828f-2d959db2aedd"
        string_val: "2ea4697d-efe2-42d3-9286-8577f989baae"
        string_val: "2c903fa9-da32-4813-8736-673331a46a93"
        string_val: "2c903fa9-da32-4813-8736-673331a46a93"
        string_val: "01eac7ec-c121-4a58-a0c9-d810fad1bff8"
        string_val: "01eac7ec-c121-4a58-a0c9-d810fad1bff8"
        string_val: "9ba25768-d067-4ad3-8ac8-aca259946ebf"
        string_val: "9ba25768-d067-4ad3-8ac8-aca259946ebf"
        string_val: "c88757fa-cb9f-413e-bdef-4c06023891c9"
        string_val: "c88757fa-cb9f-413e-bdef-4c06023891c9"
        string_val: "9ba25768-d067-4ad3-8ac8-aca259946ebf"
        string_val: "9ba25768-d067-4ad3-8ac8-aca259946ebf"
        string_val: "b72b8151-e47e-4cda-acfe-0ba8a16d73a7"
        string_val: "b72b8151-e47e-4cda-acfe-0ba8a16d73a7"
        string_val: "03ef219d-a797-4831-af03-ccd852cfa42a"
        string_val: "03ef219d-a797-4831-af03-ccd852cfa42a"
        string_val: "ee4a8da4-849a-4843-9a9c-81a49336f933"
        string_val: "ee4a8da4-849a-4843-9a9c-81a49336f933"
        string_val: "6e1ea0f7-a5f4-48d5-8d9b-bb614c85a7bb"
        string_val: "93333a7f-609c-462c-9f48-a15e25424047"
        string_val: "51fc6787-791c-499b-91b6-bd487c996ec2"
        string_val: "64dc86ea-f0fc-4b63-a355-c86ce4ea61a0"
        string_val: "0477dc76-a32d-4bbd-b19b-104caee316f4"
        string_val: "0477dc76-a32d-4bbd-b19b-104caee316f4"
        string_val: "64dc86ea-f0fc-4b63-a355-c86ce4ea61a0"
        string_val: "a05c0296-ea7e-43c6-b1d4-5e3cfb9ffd40"
        string_val: "a05c0296-ea7e-43c6-b1d4-5e3cfb9ffd40"
        string_val: "95318d9a-57fd-4edd-a279-d7a0f53b5b57"
        string_val: "a72612ef-c4d4-4b9c-957b-4f6892fc99c3"
        string_val: "fc240611-89f2-426e-901e-ef0a2d9582a5"
        string_val: "fc240611-89f2-426e-901e-ef0a2d9582a5"
        string_val: "9ad0232f-57f9-4748-876b-6453ae08b1fd"
        string_val: "447be0cf-7193-4494-9430-b83ee5214bd2"
        string_val: "447be0cf-7193-4494-9430-b83ee5214bd2"
        string_val: "bf635ca9-2290-49b8-87d3-ffd8a7c48830"
        string_val: "0e32b32c-0d2b-4693-8766-bd87953cbd54"
        string_val: "839a7a51-5934-4b40-b273-c1cab15f9634"
        string_val: "1e97c9e7-4696-45af-abf6-fad3b046df7b"
        string_val: "1e97c9e7-4696-45af-abf6-fad3b046df7b"
        string_val: "75433600-dbd3-45bc-a055-27b3200d7f41"
        string_val: "75433600-dbd3-45bc-a055-27b3200d7f41"
        string_val: "4b42cc16-6b77-43bb-82b6-5ab782ab5b93"
        string_val: "4b42cc16-6b77-43bb-82b6-5ab782ab5b93"
        string_val: "b86b0273-e0f4-429f-9d38-eb9ac3d25b72"
        string_val: "b86b0273-e0f4-429f-9d38-eb9ac3d25b72"
        string_val: "64fdf71e-8db3-47ef-9bce-77f764a08ce3"
        string_val: "64fdf71e-8db3-47ef-9bce-77f764a08ce3"
      }
    }
  }
}
node {
  name: "tensors/component_10"
  op: "Const"
  device: "/device:CPU:0"
  attr {
    key: "_output_shapes"
    value {
      list {
        shape {
          dim {
            size: 75
          }
        }
      }
    }
  }
  attr {
    key: "dtype"
    value {
      type: DT_STRING
    }
  }
  attr {
    key: "value"
    value {
      tensor {
        dtype: DT_STRING
        tensor_shape {
          dim {
            size: 75
          }
        }
        string_val: "e5f0396c-2c25-43c8-9fe7-2179b0543c26"
        string_val: "e5f0396c-2c25-43c8-9fe7-2179b0543c26"
        string_val: "b72b8151-e47e-4cda-acfe-0ba8a16d73a7"
        string_val: "b72b8151-e47e-4cda-acfe-0ba8a16d73a7"
        string_val: "8cefb673-e564-4faa-ac0a-df5103880124"
        string_val: "8cefb673-e564-4faa-ac0a-df5103880124"
        string_val: "a72612ef-c4d4-4b9c-957b-4f6892fc99c3"
        string_val: "8da79da1-ccc0-4282-a291-3a78e025d78a"
        string_val: "26a84281-0e22-46b3-9677-670d659ef3df"
        string_val: "8da79da1-ccc0-4282-a291-3a78e025d78a"
        string_val: "1237d03e-b1cb-427c-9084-5a5e814e68a4"
        string_val: "e6573cbb-bb33-408a-a1a5-856591fe1c9e"
        string_val: "3b6f23df-9990-446a-be08-50c5188428a2"
        string_val: "e6573cbb-bb33-408a-a1a5-856591fe1c9e"
        string_val: "3b6f23df-9990-446a-be08-50c5188428a2"
        string_val: "c4357c50-faff-4db2-9cfa-10d623ab081d"
        string_val: "c4357c50-faff-4db2-9cfa-10d623ab081d"
        string_val: "5f50bec6-34b5-4b5e-9444-44197f55d329"
        string_val: "60c0673d-0487-48d0-b2c3-bf23abd55778"
        string_val: "5fd5996f-9409-4a19-b858-0c3f1af8b34b"
        string_val: "97b5e858-657f-4a3a-bdd9-937bab225139"
        string_val: "8fec954f-64ee-4687-a175-84cd1d2f1487"
        string_val: "589ae468-0242-409e-9231-a9de9944896b"
        string_val: "8fec954f-64ee-4687-a175-84cd1d2f1487"
        string_val: "589ae468-0242-409e-9231-a9de9944896b"
        string_val: "a3f2e623-944f-48df-8e1e-f8664f42a42c"
        string_val: "0c7a6a7e-9e35-4692-ad6b-b05b20357e07"
        string_val: "0c7a6a7e-9e35-4692-ad6b-b05b20357e07"
        string_val: "161b9e1d-eb0b-4ab7-a296-71d09164124f"
        string_val: "93333a7f-609c-462c-9f48-a15e25424047"
        string_val: "a9109b94-7a5b-43b6-9096-2b061a6bfc09"
        string_val: "a9109b94-7a5b-43b6-9096-2b061a6bfc09"
        string_val: "649da738-bac2-4798-ac71-6ebc3c7a8559"
        string_val: "649da738-bac2-4798-ac71-6ebc3c7a8559"
        string_val: "f0f25b37-776c-48dc-8234-cdf0c79ff18e"
        string_val: "f0f25b37-776c-48dc-8234-cdf0c79ff18e"
        string_val: "31aa2d9f-b3e7-499f-b9ba-f2c93b83c880"
        string_val: "31aa2d9f-b3e7-499f-b9ba-f2c93b83c880"
        string_val: "f0f25b37-776c-48dc-8234-cdf0c79ff18e"
        string_val: "f0f25b37-776c-48dc-8234-cdf0c79ff18e"
        string_val: "1959e6ee-9961-4ce4-b912-b1cf695b76d0"
        string_val: "1959e6ee-9961-4ce4-b912-b1cf695b76d0"
        string_val: "ec14a9e1-c66b-4da1-a0d0-5918f515c85d"
        string_val: "ec14a9e1-c66b-4da1-a0d0-5918f515c85d"
        string_val: "0c7a6a7e-9e35-4692-ad6b-b05b20357e07"
        string_val: "0c7a6a7e-9e35-4692-ad6b-b05b20357e07"
        string_val: "b0e4cd84-93cf-4961-8bfc-26817d367c0b"
        string_val: "98f532d8-8512-44b7-b200-3a655b796c78"
        string_val: "0cb63132-905d-4532-a49c-9f1880832532"
        string_val: "c88757fa-cb9f-413e-bdef-4c06023891c9"
        string_val: "649da738-bac2-4798-ac71-6ebc3c7a8559"
        string_val: "649da738-bac2-4798-ac71-6ebc3c7a8559"
        string_val: "c88757fa-cb9f-413e-bdef-4c06023891c9"
        string_val: "589ae468-0242-409e-9231-a9de9944896b"
        string_val: "589ae468-0242-409e-9231-a9de9944896b"
        string_val: "5fd5996f-9409-4a19-b858-0c3f1af8b34b"
        string_val: "111d35c1-1228-4af1-b6f2-822b470c134c"
        string_val: "a4db5ec5-d95e-4ec8-8512-c9cbdd408853"
        string_val: "a4db5ec5-d95e-4ec8-8512-c9cbdd408853"
        string_val: "61a353a4-51a3-4c38-b5d6-e46611180ba7"
        string_val: "e6573cbb-bb33-408a-a1a5-856591fe1c9e"
        string_val: "e6573cbb-bb33-408a-a1a5-856591fe1c9e"
        string_val: "665736bc-5b22-4bc4-aa79-874f6fee3772"
        string_val: "60c0673d-0487-48d0-b2c3-bf23abd55778"
        string_val: "08ab54a8-a2ef-4740-9a41-43f3b45bc1d3"
        string_val: "97f72154-4ea0-450d-8876-782bf84b5526"
        string_val: "97f72154-4ea0-450d-8876-782bf84b5526"
        string_val: "692765c2-9980-4e9d-9bc7-61761fb683e6"
        string_val: "692765c2-9980-4e9d-9bc7-61761fb683e6"
        string_val: "f9514a63-255c-4b84-8543-56542f6055a0"
        string_val: "f9514a63-255c-4b84-8543-56542f6055a0"
        string_val: "c4357c50-faff-4db2-9cfa-10d623ab081d"
        string_val: "c4357c50-faff-4db2-9cfa-10d623ab081d"
        string_val: "4d7b21a1-998f-4ad9-b8bb-e06ff43f92b2"
        string_val: "4d7b21a1-998f-4ad9-b8bb-e06ff43f92b2"
      }
    }
  }
}
node {
  name: "tensors/component_11"
  op: "Const"
  device: "/device:CPU:0"
  attr {
    key: "_output_shapes"
    value {
      list {
        shape {
          dim {
            size: 75
          }
        }
      }
    }
  }
  attr {
    key: "dtype"
    value {
      type: DT_STRING
    }
  }
  attr {
    key: "value"
    value {
      tensor {
        dtype: DT_STRING
        tensor_shape {
          dim {
            size: 75
          }
        }
        string_val: "a914c4b7-7663-41c8-8dc4-0cde883cad1e"
        string_val: "a914c4b7-7663-41c8-8dc4-0cde883cad1e"
        string_val: "f3fb01d4-30cd-4453-874b-68f31dffb49e"
        string_val: "f3fb01d4-30cd-4453-874b-68f31dffb49e"
        string_val: "08ca6371-9fa7-4c07-b5ad-d6edc2ed7550"
        string_val: "08ca6371-9fa7-4c07-b5ad-d6edc2ed7550"
        string_val: "3d99a74f-81e5-400b-b26e-aed111eab839"
        string_val: "fbafacac-ccc7-4f6e-97a3-2a4ec8be2362"
        string_val: "38a54c3f-55bf-4a70-87bf-4b0d9dade257"
        string_val: "fbafacac-ccc7-4f6e-97a3-2a4ec8be2362"
        string_val: "c24e4baf-f615-46dd-a4c6-beb23025ff28"
        string_val: "d95dac6f-2f27-49f2-b202-ace860c3ea5a"
        string_val: "d944fd43-46eb-4fb9-a0fb-211510fa1356"
        string_val: "d95dac6f-2f27-49f2-b202-ace860c3ea5a"
        string_val: "d944fd43-46eb-4fb9-a0fb-211510fa1356"
        string_val: "953343b8-e9e7-4c92-b479-8a3b85ed4922"
        string_val: "953343b8-e9e7-4c92-b479-8a3b85ed4922"
        string_val: "bf947963-5acf-4e0c-8991-adc514932b32"
        string_val: "7af06a48-cae7-439a-aba1-18b9c25efce5"
        string_val: "a7967765-365d-4094-8468-fbf1de74efa8"
        string_val: "d50c1de2-8acd-431b-a6c1-141deeb51063"
        string_val: "373dd18f-cb58-4f93-941c-4c7a1d3aae66"
        string_val: "5b2b8684-44ee-4d48-8324-0503fd70b669"
        string_val: "373dd18f-cb58-4f93-941c-4c7a1d3aae66"
        string_val: "5b2b8684-44ee-4d48-8324-0503fd70b669"
        string_val: "471fdc43-85ca-48f3-a63f-cef7995025b4"
        string_val: "322776d9-60cc-4036-8720-bcee021a5d0f"
        string_val: "322776d9-60cc-4036-8720-bcee021a5d0f"
        string_val: "27c854ce-2eab-4d93-baaf-63179415443d"
        string_val: "3638f367-0ef0-4efc-8c31-a65ab1f3b7a9"
        string_val: "d4a6749b-5813-4a6d-a0c3-d9473c778772"
        string_val: "d4a6749b-5813-4a6d-a0c3-d9473c778772"
        string_val: "4e32a279-679f-4a1e-85f8-c62b267ba526"
        string_val: "4e32a279-679f-4a1e-85f8-c62b267ba526"
        string_val: "a2551eb1-eafc-4451-a35d-ab6a73d12bd2"
        string_val: "a2551eb1-eafc-4451-a35d-ab6a73d12bd2"
        string_val: "bd55075d-28c7-4a7c-aaf7-daf15aea7e2e"
        string_val: "bd55075d-28c7-4a7c-aaf7-daf15aea7e2e"
        string_val: "6beebba5-0ed2-4dfc-af03-4ccc5f367500"
        string_val: "6beebba5-0ed2-4dfc-af03-4ccc5f367500"
        string_val: "f3fb01d4-30cd-4453-874b-68f31dffb49e"
        string_val: "f3fb01d4-30cd-4453-874b-68f31dffb49e"
        string_val: "420c3a13-2852-4b68-8885-c766ac240613"
        string_val: "420c3a13-2852-4b68-8885-c766ac240613"
        string_val: "322776d9-60cc-4036-8720-bcee021a5d0f"
        string_val: "322776d9-60cc-4036-8720-bcee021a5d0f"
        string_val: "0090c958-3edd-4651-9c6a-d3623506bd78"
        string_val: "6b0eb23a-01f9-43c4-a29e-1477089c6e5d"
        string_val: "9957587e-409c-4df5-b923-eed6cade3e02"
        string_val: "94e86fbf-0f28-4a59-b330-5f2ecb4201a6"
        string_val: "4e32a279-679f-4a1e-85f8-c62b267ba526"
        string_val: "4e32a279-679f-4a1e-85f8-c62b267ba526"
        string_val: "94e86fbf-0f28-4a59-b330-5f2ecb4201a6"
        string_val: "c2878d86-f830-413d-83fe-a9c46d8c7c84"
        string_val: "c2878d86-f830-413d-83fe-a9c46d8c7c84"
        string_val: "99852fae-e5b3-4f9b-abba-631cae73572a"
        string_val: "3d99a74f-81e5-400b-b26e-aed111eab839"
        string_val: "a914c4b7-7663-41c8-8dc4-0cde883cad1e"
        string_val: "a914c4b7-7663-41c8-8dc4-0cde883cad1e"
        string_val: "218117c8-dca2-42a0-97fe-c7d261de58d8"
        string_val: "d95dac6f-2f27-49f2-b202-ace860c3ea5a"
        string_val: "d95dac6f-2f27-49f2-b202-ace860c3ea5a"
        string_val: "a64255a9-33de-401f-8691-4bc69ffa39e6"
        string_val: "13005ff5-065e-4715-a544-6880d800f873"
        string_val: "b2d70e61-bab4-4416-ab40-503e3823e0dd"
        string_val: "fefaaaf4-6fbe-4606-9f94-421cefe808fe"
        string_val: "fefaaaf4-6fbe-4606-9f94-421cefe808fe"
        string_val: "464aac5d-8fa2-4c5e-bbee-613e21ba7b47"
        string_val: "464aac5d-8fa2-4c5e-bbee-613e21ba7b47"
        string_val: "28113566-dc5c-4a04-ae77-70bf0f353733"
        string_val: "28113566-dc5c-4a04-ae77-70bf0f353733"
        string_val: "953343b8-e9e7-4c92-b479-8a3b85ed4922"
        string_val: "953343b8-e9e7-4c92-b479-8a3b85ed4922"
        string_val: "9648aa3c-cbde-4a67-925c-1760de1f5b23"
        string_val: "9648aa3c-cbde-4a67-925c-1760de1f5b23"
      }
    }
  }
}
node {
  name: "tensors/component_12"
  op: "Const"
  device: "/device:CPU:0"
  attr {
    key: "_output_shapes"
    value {
      list {
        shape {
          dim {
            size: 75
          }
        }
      }
    }
  }
  attr {
    key: "dtype"
    value {
      type: DT_STRING
    }
  }
  attr {
    key: "value"
    value {
      tensor {
        dtype: DT_STRING
        tensor_shape {
          dim {
            size: 75
          }
        }
        string_val: "7756b624-b9f1-471f-8c64-812326c467d8"
        string_val: "7756b624-b9f1-471f-8c64-812326c467d8"
        string_val: "1959e6ee-9961-4ce4-b912-b1cf695b76d0"
        string_val: "1959e6ee-9961-4ce4-b912-b1cf695b76d0"
        string_val: "4c2c6d31-f85f-4df1-9983-249e401d6b5c"
        string_val: "4c2c6d31-f85f-4df1-9983-249e401d6b5c"
        string_val: "111d35c1-1228-4af1-b6f2-822b470c134c"
        string_val: "083e1256-ac50-40f0-a616-1d8f8c42b4c6"
        string_val: "b93cce25-a43d-4d9d-af4e-589183dcebaf"
        string_val: "083e1256-ac50-40f0-a616-1d8f8c42b4c6"
        string_val: "9c87b1d3-c4d9-4f07-b1dd-783935360e2f"
        string_val: "775efab2-91ce-4de8-be39-e13736a85630"
        string_val: "2ec3d74d-336c-4fdf-ad5d-e2feaccce79c"
        string_val: "775efab2-91ce-4de8-be39-e13736a85630"
        string_val: "2ec3d74d-336c-4fdf-ad5d-e2feaccce79c"
        string_val: "16f613c4-3205-410e-b53e-db9daefd4b57"
        string_val: "16f613c4-3205-410e-b53e-db9daefd4b57"
        string_val: "06cacf3e-7b0d-4a5c-bf0a-93b91205b9c0"
        string_val: "0072b293-bc1d-4679-a59f-6df2d2e41e55"
        string_val: "43750c11-945a-4c28-9761-29d6074300da"
        string_val: "9a83b44d-88cb-4676-8522-e7a99d8f4beb"
        string_val: "7fd49637-dad2-4743-abaa-4bd610f8a8a0"
        string_val: "e6b321d3-6ea4-400a-9a30-b336d395aa17"
        string_val: "7fd49637-dad2-4743-abaa-4bd610f8a8a0"
        string_val: "e6b321d3-6ea4-400a-9a30-b336d395aa17"
        string_val: "868959b8-9f30-4ca8-9352-9c8205501fde"
        string_val: "7f979b13-7c1a-4e4d-acd3-f43470279389"
        string_val: "7f979b13-7c1a-4e4d-acd3-f43470279389"
        string_val: "61ab0563-fc4a-453c-8b22-7195154b100b"
        string_val: "2d8d9dbb-5f90-4774-8302-d3673c63f1f5"
        string_val: "5755aaed-25c6-4695-a5f1-503d0fcd7ad4"
        string_val: "5755aaed-25c6-4695-a5f1-503d0fcd7ad4"
        string_val: "0477dc76-a32d-4bbd-b19b-104caee316f4"
        string_val: "0477dc76-a32d-4bbd-b19b-104caee316f4"
        string_val: "6fad7ce3-d90c-43ff-ad06-2a692adc53d3"
        string_val: "6fad7ce3-d90c-43ff-ad06-2a692adc53d3"
        string_val: "1f62c0e4-8028-4d85-9481-c54755b93aa1"
        string_val: "1f62c0e4-8028-4d85-9481-c54755b93aa1"
        string_val: "19f4d537-427a-4ae4-adf6-b2885ba9e62a"
        string_val: "19f4d537-427a-4ae4-adf6-b2885ba9e62a"
        string_val: "825d72bd-440e-4712-8d29-12e84e597984"
        string_val: "825d72bd-440e-4712-8d29-12e84e597984"
        string_val: "355d1608-10a7-4de1-b92f-f9b0e8893f45"
        string_val: "355d1608-10a7-4de1-b92f-f9b0e8893f45"
        string_val: "2c020e3d-8b55-4749-88a4-573e21eba931"
        string_val: "2c020e3d-8b55-4749-88a4-573e21eba931"
        string_val: "0548898a-dd95-4061-8d30-2515c6149768"
        string_val: "580cd15d-6610-4121-a96c-b8be102ef651"
        string_val: "28f92e17-b10e-47e6-9f9c-4f5bb54e8cad"
        string_val: "fcacb55f-7ab6-4990-a7e0-34eaa28e1fab"
        string_val: "86fbb000-7ca9-45e3-aa66-480a04503158"
        string_val: "86fbb000-7ca9-45e3-aa66-480a04503158"
        string_val: "fcacb55f-7ab6-4990-a7e0-34eaa28e1fab"
        string_val: "7f732a4d-f6a7-469f-96d5-fc0d8e8a7265"
        string_val: "7f732a4d-f6a7-469f-96d5-fc0d8e8a7265"
        string_val: "5cf58527-a516-48e0-bcb8-b23a535674ee"
        string_val: "99b9783d-096f-44a6-80b8-d8c25f9bd1fb"
        string_val: "7255012d-9a0b-4646-a5c7-8c3ea3a887a2"
        string_val: "7255012d-9a0b-4646-a5c7-8c3ea3a887a2"
        string_val: "682e27b2-8d64-4ab3-ba42-c8ab2faeb755"
        string_val: "b28e70f8-05e0-4824-86d6-8a072c26f632"
        string_val: "b28e70f8-05e0-4824-86d6-8a072c26f632"
        string_val: "83f67653-bd8d-4102-a570-6d3d231e54b7"
        string_val: "7af06a48-cae7-439a-aba1-18b9c25efce5"
        string_val: "209f5539-e6e4-4c2f-95bc-3ee4ba8fd138"
        string_val: "c89711d2-783a-45d4-918b-de1250f32f13"
        string_val: "c89711d2-783a-45d4-918b-de1250f32f13"
        string_val: "e9bb74dd-f989-4890-9ec4-9c1084383def"
        string_val: "e9bb74dd-f989-4890-9ec4-9c1084383def"
        string_val: "5ea453e5-fa40-4e64-8ee1-339b840a5a68"
        string_val: "5ea453e5-fa40-4e64-8ee1-339b840a5a68"
        string_val: "2546c63f-4092-4158-821f-e84fd2438b15"
        string_val: "2546c63f-4092-4158-821f-e84fd2438b15"
        string_val: "18111097-6bf6-40cd-8e3a-c814c00c6ea8"
        string_val: "18111097-6bf6-40cd-8e3a-c814c00c6ea8"
      }
    }
  }
}
node {
  name: "tensors/component_13"
  op: "Const"
  device: "/device:CPU:0"
  attr {
    key: "_output_shapes"
    value {
      list {
        shape {
          dim {
            size: 75
          }
        }
      }
    }
  }
  attr {
    key: "dtype"
    value {
      type: DT_STRING
    }
  }
  attr {
    key: "value"
    value {
      tensor {
        dtype: DT_STRING
        tensor_shape {
          dim {
            size: 75
          }
        }
        string_val: "6c11cdfc-f152-4974-ac02-b8e5d10a6b36"
        string_val: "6c11cdfc-f152-4974-ac02-b8e5d10a6b36"
        string_val: "04f13e5d-2a36-44cb-8a84-53928acaa4a0"
        string_val: "04f13e5d-2a36-44cb-8a84-53928acaa4a0"
        string_val: "839a7a51-5934-4b40-b273-c1cab15f9634"
        string_val: "839a7a51-5934-4b40-b273-c1cab15f9634"
        string_val: "f0f25b37-776c-48dc-8234-cdf0c79ff18e"
        string_val: "282a3ce3-7903-4377-b620-439bdc111ce8"
        string_val: "fe71bb6b-af93-41a9-aedc-709ba855ace7"
        string_val: "282a3ce3-7903-4377-b620-439bdc111ce8"
        string_val: "8e330a77-1769-4868-bde1-e3b5ab6475df"
        string_val: "15c321e8-c85c-4392-a8d0-d986cae7ef6e"
        string_val: "8d5dfeb4-f637-4554-93af-3007d6a05147"
        string_val: "15c321e8-c85c-4392-a8d0-d986cae7ef6e"
        string_val: "8d5dfeb4-f637-4554-93af-3007d6a05147"
        string_val: "67f148e4-c663-40cf-8c14-89781a7987a0"
        string_val: "67f148e4-c663-40cf-8c14-89781a7987a0"
        string_val: "849e13d9-47a2-4074-ad18-16f712ad9f4b"
        string_val: "13005ff5-065e-4715-a544-6880d800f873"
        string_val: "d62a3ff7-2a52-4668-9ba2-fa6b56b54701"
        string_val: "b0bbc3aa-cf1f-48f1-9d87-4cb7ace8d9a2"
        string_val: "9a702680-8c74-4802-b947-c3c2053ac52c"
        string_val: "3627e2f6-2675-458b-ad0d-2d4ff3da7210"
        string_val: "9a702680-8c74-4802-b947-c3c2053ac52c"
        string_val: "3627e2f6-2675-458b-ad0d-2d4ff3da7210"
        string_val: "93f3572c-feee-4363-98f9-0bd651fc91bd"
        string_val: "fe628559-cdb7-4da4-b785-c85f16676395"
        string_val: "fe628559-cdb7-4da4-b785-c85f16676395"
        string_val: "b0e4cd84-93cf-4961-8bfc-26817d367c0b"
        string_val: "6b0eb23a-01f9-43c4-a29e-1477089c6e5d"
        string_val: "222b6819-1c4b-41fd-8157-c44c48ce169e"
        string_val: "222b6819-1c4b-41fd-8157-c44c48ce169e"
        string_val: "2e858874-f3b8-4246-8415-fca913cfa57a"
        string_val: "2e858874-f3b8-4246-8415-fca913cfa57a"
        string_val: "c2dacb13-cf9d-4aec-ac0c-de5c31d33b90"
        string_val: "c2dacb13-cf9d-4aec-ac0c-de5c31d33b90"
        string_val: "2d97e142-4329-4fce-a885-efd23e678b43"
        string_val: "2d97e142-4329-4fce-a885-efd23e678b43"
        string_val: "c2dacb13-cf9d-4aec-ac0c-de5c31d33b90"
        string_val: "c2dacb13-cf9d-4aec-ac0c-de5c31d33b90"
        string_val: "67c8d966-9f3b-453b-a628-30d7de897eae"
        string_val: "67c8d966-9f3b-453b-a628-30d7de897eae"
        string_val: "373dd18f-cb58-4f93-941c-4c7a1d3aae66"
        string_val: "373dd18f-cb58-4f93-941c-4c7a1d3aae66"
        string_val: "14bb1237-db23-491f-a16e-a76aeb2dcfb4"
        string_val: "14bb1237-db23-491f-a16e-a76aeb2dcfb4"
        string_val: "61ab0563-fc4a-453c-8b22-7195154b100b"
        string_val: "96d6e9fd-0f4d-4f0f-bde6-e4dff67d9e55"
        string_val: "e70aec50-7ced-46b7-8cd9-ad2be28d3e57"
        string_val: "1f62c0e4-8028-4d85-9481-c54755b93aa1"
        string_val: "01eac7ec-c121-4a58-a0c9-d810fad1bff8"
        string_val: "01eac7ec-c121-4a58-a0c9-d810fad1bff8"
        string_val: "1f62c0e4-8028-4d85-9481-c54755b93aa1"
        string_val: "e2294b9a-8b4b-4bca-8331-88eddc7b2590"
        string_val: "e2294b9a-8b4b-4bca-8331-88eddc7b2590"
        string_val: "ff2bb35f-8cf7-45b7-8e86-6f6c4d720bf9"
        string_val: "6abe528c-bc98-4c57-8e9c-217335d169b7"
        string_val: "7756b624-b9f1-471f-8c64-812326c467d8"
        string_val: "7756b624-b9f1-471f-8c64-812326c467d8"
        string_val: "74cc7d55-162c-4154-8451-2c4c3b5cef4b"
        string_val: "15c321e8-c85c-4392-a8d0-d986cae7ef6e"
        string_val: "15c321e8-c85c-4392-a8d0-d986cae7ef6e"
        string_val: "4c786644-8f22-45dc-a2b6-10ea42bbd6fc"
        string_val: "f43f2c7a-18dc-468b-babe-ecb98f08809d"
        string_val: "161b9e1d-eb0b-4ab7-a296-71d09164124f"
        string_val: "8da79da1-ccc0-4282-a291-3a78e025d78a"
        string_val: "8da79da1-ccc0-4282-a291-3a78e025d78a"
        string_val: "0e44523a-be15-45de-a571-29919a7b39c6"
        string_val: "0e44523a-be15-45de-a571-29919a7b39c6"
        string_val: "aa9cd7e9-4a98-4cd6-b61e-4d14bb660ac8"
        string_val: "aa9cd7e9-4a98-4cd6-b61e-4d14bb660ac8"
        string_val: "d297d615-2efe-4fae-ace2-7cdc7e3e4558"
        string_val: "d297d615-2efe-4fae-ace2-7cdc7e3e4558"
        string_val: "d944fd43-46eb-4fb9-a0fb-211510fa1356"
        string_val: "d944fd43-46eb-4fb9-a0fb-211510fa1356"
      }
    }
  }
}
node {
  name: "tensors/component_14"
  op: "Const"
  device: "/device:CPU:0"
  attr {
    key: "_output_shapes"
    value {
      list {
        shape {
          dim {
            size: 75
          }
        }
      }
    }
  }
  attr {
    key: "dtype"
    value {
      type: DT_STRING
    }
  }
  attr {
    key: "value"
    value {
      tensor {
        dtype: DT_STRING
        tensor_shape {
          dim {
            size: 75
          }
        }
        string_val: "7255012d-9a0b-4646-a5c7-8c3ea3a887a2"
        string_val: "7255012d-9a0b-4646-a5c7-8c3ea3a887a2"
        string_val: "8b2ff330-aa03-46a7-81ed-e063b6e7f0a3"
        string_val: "8b2ff330-aa03-46a7-81ed-e063b6e7f0a3"
        string_val: "98f532d8-8512-44b7-b200-3a655b796c78"
        string_val: "98f532d8-8512-44b7-b200-3a655b796c78"
        string_val: "d363baea-70df-482c-81ef-b66afb9484cc"
        string_val: "97f72154-4ea0-450d-8876-782bf84b5526"
        string_val: "fe71bb6b-af93-41a9-aedc-709ba855ace7"
        string_val: "97f72154-4ea0-450d-8876-782bf84b5526"
        string_val: "8e3a9122-71c4-4ba7-bfff-1b19bfedd82c"
        string_val: "918c4efb-d5a2-4f0f-9d98-87deb579da2f"
        string_val: "8f5c1e36-763c-44dd-a812-3060599c00ce"
        string_val: "918c4efb-d5a2-4f0f-9d98-87deb579da2f"
        string_val: "8f5c1e36-763c-44dd-a812-3060599c00ce"
        string_val: "4e4f3524-89e1-4e68-a0a6-2c7d8f33a236"
        string_val: "4e4f3524-89e1-4e68-a0a6-2c7d8f33a236"
        string_val: "82acf3f2-1cb9-4f7f-a4a7-de50bd7a39fb"
        string_val: "5687d5bf-6fd9-4a54-a18e-1f7a4704e1d4"
        string_val: "a36698f2-e917-4188-bf81-107582b7af70"
        string_val: "503cf371-9338-4983-91ee-1bcccd03ffad"
        string_val: "7f7c24ff-077c-44f2-92f4-b6e8b28b8f46"
        string_val: "e2294b9a-8b4b-4bca-8331-88eddc7b2590"
        string_val: "7f7c24ff-077c-44f2-92f4-b6e8b28b8f46"
        string_val: "e2294b9a-8b4b-4bca-8331-88eddc7b2590"
        string_val: "f3bfbec0-14dc-4330-803f-58179be96c44"
        string_val: "14bb1237-db23-491f-a16e-a76aeb2dcfb4"
        string_val: "14bb1237-db23-491f-a16e-a76aeb2dcfb4"
        string_val: "a0eb40fa-64fe-4d8f-ad8c-b4392256af44"
        string_val: "d98b0deb-c2b5-44ce-aef5-f8e1b0d4aecb"
        string_val: "28113566-dc5c-4a04-ae77-70bf0f353733"
        string_val: "28113566-dc5c-4a04-ae77-70bf0f353733"
        string_val: "5af4483b-28dd-4109-88e8-bd364cf2ca81"
        string_val: "5af4483b-28dd-4109-88e8-bd364cf2ca81"
        string_val: "e46b8a92-16be-4831-bd41-1e279051d674"
        string_val: "e46b8a92-16be-4831-bd41-1e279051d674"
        string_val: "3b88ece8-1796-4f49-80d1-9a4d44cd78c1"
        string_val: "3b88ece8-1796-4f49-80d1-9a4d44cd78c1"
        string_val: "b4a46529-f276-4b82-915d-f7a41639746a"
        string_val: "b4a46529-f276-4b82-915d-f7a41639746a"
        string_val: "04f13e5d-2a36-44cb-8a84-53928acaa4a0"
        string_val: "04f13e5d-2a36-44cb-8a84-53928acaa4a0"
        string_val: "a5441dc5-ab6a-4a5b-aa06-d13b658e97e4"
        string_val: "a5441dc5-ab6a-4a5b-aa06-d13b658e97e4"
        string_val: "65dddfea-56c5-4395-b83f-812e834cfc08"
        string_val: "65dddfea-56c5-4395-b83f-812e834cfc08"
        string_val: "a0eb40fa-64fe-4d8f-ad8c-b4392256af44"
        string_val: "3638f367-0ef0-4efc-8c31-a65ab1f3b7a9"
        string_val: "baa76928-995e-402f-a88c-efcf64342c6d"
        string_val: "0fc4c8a2-dc3a-49b9-9706-14e40de3f158"
        string_val: "2e858874-f3b8-4246-8415-fca913cfa57a"
        string_val: "2e858874-f3b8-4246-8415-fca913cfa57a"
        string_val: "0fc4c8a2-dc3a-49b9-9706-14e40de3f158"
        string_val: "762ee000-afd0-415b-9e1a-0b1db319d85a"
        string_val: "762ee000-afd0-415b-9e1a-0b1db319d85a"
        string_val: "dad0d89c-afb5-4a92-9603-851d25daa4f4"
        string_val: "c6afe2a0-a39b-4af2-8fff-f9fd29bc6cf5"
        string_val: "e5f0396c-2c25-43c8-9fe7-2179b0543c26"
        string_val: "e5f0396c-2c25-43c8-9fe7-2179b0543c26"
        string_val: "658de689-3272-4ab0-9258-5ec37acecb43"
        string_val: "212b8733-1c9e-4ff8-801b-a4d9669b9692"
        string_val: "212b8733-1c9e-4ff8-801b-a4d9669b9692"
        string_val: "6d15a71b-2522-4caf-a280-764e6c6163ef"
        string_val: "5687d5bf-6fd9-4a54-a18e-1f7a4704e1d4"
        string_val: "649da738-bac2-4798-ac71-6ebc3c7a8559"
        string_val: "d003cebd-d2f8-42ef-bf11-b42122a27dc3"
        string_val: "d003cebd-d2f8-42ef-bf11-b42122a27dc3"
        string_val: "7784bad1-3280-4e9b-95a9-7ad19b89c03d"
        string_val: "7784bad1-3280-4e9b-95a9-7ad19b89c03d"
        string_val: "5e0f30e0-35a2-44bb-8972-b457417b3e1d"
        string_val: "5e0f30e0-35a2-44bb-8972-b457417b3e1d"
        string_val: "4e4f3524-89e1-4e68-a0a6-2c7d8f33a236"
        string_val: "4e4f3524-89e1-4e68-a0a6-2c7d8f33a236"
        string_val: "8d5dfeb4-f637-4554-93af-3007d6a05147"
        string_val: "8d5dfeb4-f637-4554-93af-3007d6a05147"
      }
    }
  }
}
node {
  name: "tensors/component_15"
  op: "Const"
  device: "/device:CPU:0"
  attr {
    key: "_output_shapes"
    value {
      list {
        shape {
          dim {
            size: 75
          }
        }
      }
    }
  }
  attr {
    key: "dtype"
    value {
      type: DT_STRING
    }
  }
  attr {
    key: "value"
    value {
      tensor {
        dtype: DT_STRING
        tensor_shape {
          dim {
            size: 75
          }
        }
        string_val: "9913dd4b-9332-4465-8c80-11b734250046"
        string_val: "9913dd4b-9332-4465-8c80-11b734250046"
        string_val: "bbe21408-c73e-432f-bcd3-5bad98ba1575"
        string_val: "bbe21408-c73e-432f-bcd3-5bad98ba1575"
        string_val: "a50d4950-758b-4ded-8f7f-f76969b36b95"
        string_val: "a50d4950-758b-4ded-8f7f-f76969b36b95"
        string_val: "3b637be5-b0b0-49f5-b4e9-b2ff76549707"
        string_val: "4b7a5d6d-798a-4c8c-afbf-ad17744e2ae5"
        string_val: "d286c0bf-6534-4fcf-b60a-b97a91d97b72"
        string_val: "4b7a5d6d-798a-4c8c-afbf-ad17744e2ae5"
        string_val: "be06838e-ff7e-48f3-a50d-c211c1a8ce78"
        string_val: "7c877d8e-e911-4bec-b25b-38cb0d3125aa"
        string_val: "89d45c34-5262-49c1-b1da-4587b8713d13"
        string_val: "7c877d8e-e911-4bec-b25b-38cb0d3125aa"
        string_val: "89d45c34-5262-49c1-b1da-4587b8713d13"
        string_val: "91d79c17-a953-42e6-86f6-498c7ff9a051"
        string_val: "91d79c17-a953-42e6-86f6-498c7ff9a051"
        string_val: "3a0259cf-6afc-4bfe-a99f-6fe5435a1a3e"
        string_val: "fcedf4aa-18d8-4d21-a246-425d4d2d7a0c"
        string_val: "6573e03b-9e85-4506-82d0-c3d6be82be48"
        string_val: "261ffc21-cf8a-48da-a43e-23c9b6df1e4d"
        string_val: "f4f08982-6264-4ee8-abed-7a7de531387c"
        string_val: "fab9af29-a8c7-4473-b237-80314ac6bc25"
        string_val: "f4f08982-6264-4ee8-abed-7a7de531387c"
        string_val: "fab9af29-a8c7-4473-b237-80314ac6bc25"
        string_val: "38b59015-90a6-4762-829a-d8470a2c80d3"
        string_val: "7e36e208-aaa3-4479-85c5-e886f9591988"
        string_val: "7e36e208-aaa3-4479-85c5-e886f9591988"
        string_val: "b9575882-eceb-44d0-95cb-63d07d89aa16"
        string_val: "a82c895b-46da-4230-9ca7-bbf3918d99df"
        string_val: "3effb6f4-e643-4a23-874a-8cbef1adfc7c"
        string_val: "3effb6f4-e643-4a23-874a-8cbef1adfc7c"
        string_val: "a3aa3eb1-3962-4641-a53f-c337054c0841"
        string_val: "a3aa3eb1-3962-4641-a53f-c337054c0841"
        string_val: "81e5652e-3d2a-4393-bf78-4af6ce17a781"
        string_val: "81e5652e-3d2a-4393-bf78-4af6ce17a781"
        string_val: "12566dfe-5818-44a3-868b-14e6ab6c87e5"
        string_val: "12566dfe-5818-44a3-868b-14e6ab6c87e5"
        string_val: "fab9af29-a8c7-4473-b237-80314ac6bc25"
        string_val: "fab9af29-a8c7-4473-b237-80314ac6bc25"
        string_val: "12566dfe-5818-44a3-868b-14e6ab6c87e5"
        string_val: "12566dfe-5818-44a3-868b-14e6ab6c87e5"
        string_val: "a82c895b-46da-4230-9ca7-bbf3918d99df"
        string_val: "a82c895b-46da-4230-9ca7-bbf3918d99df"
        string_val: "3effb6f4-e643-4a23-874a-8cbef1adfc7c"
        string_val: "3effb6f4-e643-4a23-874a-8cbef1adfc7c"
        string_val: "91d79c17-a953-42e6-86f6-498c7ff9a051"
        string_val: "7e36e208-aaa3-4479-85c5-e886f9591988"
        string_val: "8c2ae545-a23f-4cdf-94a9-a52367601bcf"
        string_val: "81e5652e-3d2a-4393-bf78-4af6ce17a781"
        string_val: "f4f08982-6264-4ee8-abed-7a7de531387c"
        string_val: "f4f08982-6264-4ee8-abed-7a7de531387c"
        string_val: "81e5652e-3d2a-4393-bf78-4af6ce17a781"
        string_val: "6573e03b-9e85-4506-82d0-c3d6be82be48"
        string_val: "6573e03b-9e85-4506-82d0-c3d6be82be48"
        string_val: "a3aa3eb1-3962-4641-a53f-c337054c0841"
        string_val: "fcedf4aa-18d8-4d21-a246-425d4d2d7a0c"
        string_val: "a50d4950-758b-4ded-8f7f-f76969b36b95"
        string_val: "a50d4950-758b-4ded-8f7f-f76969b36b95"
        string_val: "8c2ae545-a23f-4cdf-94a9-a52367601bcf"
        string_val: "9913dd4b-9332-4465-8c80-11b734250046"
        string_val: "9913dd4b-9332-4465-8c80-11b734250046"
        string_val: "be06838e-ff7e-48f3-a50d-c211c1a8ce78"
        string_val: "d286c0bf-6534-4fcf-b60a-b97a91d97b72"
        string_val: "3b637be5-b0b0-49f5-b4e9-b2ff76549707"
        string_val: "89d45c34-5262-49c1-b1da-4587b8713d13"
        string_val: "89d45c34-5262-49c1-b1da-4587b8713d13"
        string_val: "bbe21408-c73e-432f-bcd3-5bad98ba1575"
        string_val: "bbe21408-c73e-432f-bcd3-5bad98ba1575"
        string_val: "7c877d8e-e911-4bec-b25b-38cb0d3125aa"
        string_val: "7c877d8e-e911-4bec-b25b-38cb0d3125aa"
        string_val: "4b7a5d6d-798a-4c8c-afbf-ad17744e2ae5"
        string_val: "4b7a5d6d-798a-4c8c-afbf-ad17744e2ae5"
        string_val: "b9575882-eceb-44d0-95cb-63d07d89aa16"
        string_val: "b9575882-eceb-44d0-95cb-63d07d89aa16"
      }
    }
  }
}
node {
  name: "tensors/component_16"
  op: "Const"
  device: "/device:CPU:0"
  attr {
    key: "_output_shapes"
    value {
      list {
        shape {
          dim {
            size: 75
          }
        }
      }
    }
  }
  attr {
    key: "dtype"
    value {
      type: DT_STRING
    }
  }
  attr {
    key: "value"
    value {
      tensor {
        dtype: DT_STRING
        tensor_shape {
          dim {
            size: 75
          }
        }
        string_val: "7f0946e6-cf47-4278-b777-c11f9e485322"
        string_val: "7f0946e6-cf47-4278-b777-c11f9e485322"
        string_val: "2edaf97b-2b2f-4ad4-9264-be8926279088"
        string_val: "2edaf97b-2b2f-4ad4-9264-be8926279088"
        string_val: "35b121ee-41ea-448b-bb15-cc5aec5df8cc"
        string_val: "35b121ee-41ea-448b-bb15-cc5aec5df8cc"
        string_val: "b0d48bed-482d-4ff9-afcf-0954d5b6ea04"
        string_val: "5946660f-7082-448f-963d-9c486fd41e90"
        string_val: "a162ba9f-53d0-4f7a-a48e-f4e73d5f60f8"
        string_val: "5946660f-7082-448f-963d-9c486fd41e90"
        string_val: "ac6f97c6-58fa-462a-869e-fc9dd3a00ca5"
        string_val: "6b6eb79e-0b35-41a4-b330-f64bbf94459f"
        string_val: "2c371cd2-4244-4910-9c0c-5ba20c935e9a"
        string_val: "6b6eb79e-0b35-41a4-b330-f64bbf94459f"
        string_val: "2c371cd2-4244-4910-9c0c-5ba20c935e9a"
        string_val: "f0a92221-59a9-42fe-84c9-9d50c43b46dc"
        string_val: "f0a92221-59a9-42fe-84c9-9d50c43b46dc"
        string_val: "3632c38d-6c5b-456e-a7e8-ccf3a5637f3a"
        string_val: "897e9f36-6cba-481e-97ba-e31242e2906f"
        string_val: "fac85871-4daf-422f-ad55-e8b00d9141d3"
        string_val: "3f38dc4a-9cf0-4b13-9ba0-023c4473e9eb"
        string_val: "14e3d16b-e884-48ec-96ad-af8cf482a05c"
        string_val: "cc8cd6f8-a07d-4ee2-962f-16958648eb6d"
        string_val: "14e3d16b-e884-48ec-96ad-af8cf482a05c"
        string_val: "cc8cd6f8-a07d-4ee2-962f-16958648eb6d"
        string_val: "3590a7f5-ae32-4082-99b6-757f41a506ce"
        string_val: "4b91a4a4-b753-4625-8d27-e09ae83103be"
        string_val: "4b91a4a4-b753-4625-8d27-e09ae83103be"
        string_val: "fef93412-e52f-4ff7-82f3-584b1a2dcb08"
        string_val: "75ce2f31-04ae-425d-b3f1-2f32e2c51402"
        string_val: "e33bea12-ef36-485c-ac73-db635854b5fb"
        string_val: "e33bea12-ef36-485c-ac73-db635854b5fb"
        string_val: "a070685b-b38f-4e72-8ba5-895828e77abf"
        string_val: "a070685b-b38f-4e72-8ba5-895828e77abf"
        string_val: "1c0d6173-171c-48a0-8821-be2802c94e64"
        string_val: "1c0d6173-171c-48a0-8821-be2802c94e64"
        string_val: "98f532d8-8512-44b7-b200-3a655b796c78"
        string_val: "98f532d8-8512-44b7-b200-3a655b796c78"
        string_val: "cc8cd6f8-a07d-4ee2-962f-16958648eb6d"
        string_val: "cc8cd6f8-a07d-4ee2-962f-16958648eb6d"
        string_val: "98f532d8-8512-44b7-b200-3a655b796c78"
        string_val: "98f532d8-8512-44b7-b200-3a655b796c78"
        string_val: "75ce2f31-04ae-425d-b3f1-2f32e2c51402"
        string_val: "75ce2f31-04ae-425d-b3f1-2f32e2c51402"
        string_val: "e33bea12-ef36-485c-ac73-db635854b5fb"
        string_val: "e33bea12-ef36-485c-ac73-db635854b5fb"
        string_val: "7405f628-6380-4a73-a42e-f8ccea65149f"
        string_val: "4b91a4a4-b753-4625-8d27-e09ae83103be"
        string_val: "f3144a24-b45b-4f42-b5a8-56b4b9a305bf"
        string_val: "1c0d6173-171c-48a0-8821-be2802c94e64"
        string_val: "14e3d16b-e884-48ec-96ad-af8cf482a05c"
        string_val: "14e3d16b-e884-48ec-96ad-af8cf482a05c"
        string_val: "1c0d6173-171c-48a0-8821-be2802c94e64"
        string_val: "fac85871-4daf-422f-ad55-e8b00d9141d3"
        string_val: "fac85871-4daf-422f-ad55-e8b00d9141d3"
        string_val: "a070685b-b38f-4e72-8ba5-895828e77abf"
        string_val: "897e9f36-6cba-481e-97ba-e31242e2906f"
        string_val: "35b121ee-41ea-448b-bb15-cc5aec5df8cc"
        string_val: "35b121ee-41ea-448b-bb15-cc5aec5df8cc"
        string_val: "f3144a24-b45b-4f42-b5a8-56b4b9a305bf"
        string_val: "7f0946e6-cf47-4278-b777-c11f9e485322"
        string_val: "7f0946e6-cf47-4278-b777-c11f9e485322"
        string_val: "ac6f97c6-58fa-462a-869e-fc9dd3a00ca5"
        string_val: "a162ba9f-53d0-4f7a-a48e-f4e73d5f60f8"
        string_val: "a4e69044-2108-4c59-9d11-60683e74d754"
        string_val: "762ee000-afd0-415b-9e1a-0b1db319d85a"
        string_val: "762ee000-afd0-415b-9e1a-0b1db319d85a"
        string_val: "2edaf97b-2b2f-4ad4-9264-be8926279088"
        string_val: "2edaf97b-2b2f-4ad4-9264-be8926279088"
        string_val: "6b6eb79e-0b35-41a4-b330-f64bbf94459f"
        string_val: "6b6eb79e-0b35-41a4-b330-f64bbf94459f"
        string_val: "5946660f-7082-448f-963d-9c486fd41e90"
        string_val: "5946660f-7082-448f-963d-9c486fd41e90"
        string_val: "fef93412-e52f-4ff7-82f3-584b1a2dcb08"
        string_val: "fef93412-e52f-4ff7-82f3-584b1a2dcb08"
      }
    }
  }
}
node {
  name: "tensors/component_17"
  op: "Const"
  device: "/device:CPU:0"
  attr {
    key: "_output_shapes"
    value {
      list {
        shape {
          dim {
            size: 75
          }
        }
      }
    }
  }
  attr {
    key: "dtype"
    value {
      type: DT_STRING
    }
  }
  attr {
    key: "value"
    value {
      tensor {
        dtype: DT_STRING
        tensor_shape {
          dim {
            size: 75
          }
        }
        string_val: "ee98ff29-233b-4e43-b97a-915fd0047b6e"
        string_val: "ee98ff29-233b-4e43-b97a-915fd0047b6e"
        string_val: "dedce2b5-fdb3-439f-9fce-36073c650d3d"
        string_val: "dedce2b5-fdb3-439f-9fce-36073c650d3d"
        string_val: "77a0ca3c-5907-45b5-a079-226012215638"
        string_val: "77a0ca3c-5907-45b5-a079-226012215638"
        string_val: "27c854ce-2eab-4d93-baaf-63179415443d"
        string_val: "23b7c96b-1b4c-4956-ac95-cb67d9a231c8"
        string_val: "99852fae-e5b3-4f9b-abba-631cae73572a"
        string_val: "23b7c96b-1b4c-4956-ac95-cb67d9a231c8"
        string_val: "70406c53-5ee4-4c7c-8d75-38238241b582"
        string_val: "2c020e3d-8b55-4749-88a4-573e21eba931"
        string_val: "11c8181b-8bde-4b10-b807-e5ca781cf0ba"
        string_val: "2c020e3d-8b55-4749-88a4-573e21eba931"
        string_val: "11c8181b-8bde-4b10-b807-e5ca781cf0ba"
        string_val: "a9109b94-7a5b-43b6-9096-2b061a6bfc09"
        string_val: "a9109b94-7a5b-43b6-9096-2b061a6bfc09"
        string_val: "9ca7f0da-05c1-4011-a09c-62a4d250f1d9"
        string_val: "3638f367-0ef0-4efc-8c31-a65ab1f3b7a9"
        string_val: "4261acdf-51cb-47e0-8150-92f9207d5242"
        string_val: "74cad168-9357-4587-bbfb-5f535a3a0f6f"
        string_val: "45a29d0a-a3c2-4a01-8fb3-9f00259b0ee7"
        string_val: "7784bad1-3280-4e9b-95a9-7ad19b89c03d"
        string_val: "45a29d0a-a3c2-4a01-8fb3-9f00259b0ee7"
        string_val: "7784bad1-3280-4e9b-95a9-7ad19b89c03d"
        string_val: "30dfcf85-0c59-4e36-8b7e-343f61a66067"
        string_val: "3a2cdb03-0440-45f4-b298-459e70b0b8f2"
        string_val: "3a2cdb03-0440-45f4-b298-459e70b0b8f2"
        string_val: "f3fb01d4-30cd-4453-874b-68f31dffb49e"
        string_val: "7c557516-0e60-4388-9572-9ec84ce8dd93"
        string_val: "9f365700-264b-4825-a904-b10e370a6fc0"
        string_val: "9f365700-264b-4825-a904-b10e370a6fc0"
        string_val: "282a3ce3-7903-4377-b620-439bdc111ce8"
        string_val: "282a3ce3-7903-4377-b620-439bdc111ce8"
        string_val: "946d52dd-f69b-4803-9729-294939cb96f8"
        string_val: "946d52dd-f69b-4803-9729-294939cb96f8"
        string_val: "4c2c6d31-f85f-4df1-9983-249e401d6b5c"
        string_val: "4c2c6d31-f85f-4df1-9983-249e401d6b5c"
        string_val: "7784bad1-3280-4e9b-95a9-7ad19b89c03d"
        string_val: "7784bad1-3280-4e9b-95a9-7ad19b89c03d"
        string_val: "4c2c6d31-f85f-4df1-9983-249e401d6b5c"
        string_val: "4c2c6d31-f85f-4df1-9983-249e401d6b5c"
        string_val: "7c557516-0e60-4388-9572-9ec84ce8dd93"
        string_val: "7c557516-0e60-4388-9572-9ec84ce8dd93"
        string_val: "9f365700-264b-4825-a904-b10e370a6fc0"
        string_val: "9f365700-264b-4825-a904-b10e370a6fc0"
        string_val: "5e0f30e0-35a2-44bb-8972-b457417b3e1d"
        string_val: "3a2cdb03-0440-45f4-b298-459e70b0b8f2"
        string_val: "ab026022-5848-4266-9c9d-93ceb94f9174"
        string_val: "946d52dd-f69b-4803-9729-294939cb96f8"
        string_val: "40d87854-bf93-4d71-92c8-76ee939b297d"
        string_val: "40d87854-bf93-4d71-92c8-76ee939b297d"
        string_val: "946d52dd-f69b-4803-9729-294939cb96f8"
        string_val: "4261acdf-51cb-47e0-8150-92f9207d5242"
        string_val: "4261acdf-51cb-47e0-8150-92f9207d5242"
        string_val: "282a3ce3-7903-4377-b620-439bdc111ce8"
        string_val: "d98b0deb-c2b5-44ce-aef5-f8e1b0d4aecb"
        string_val: "53df9637-5b69-435c-8514-5bf4864d18f0"
        string_val: "53df9637-5b69-435c-8514-5bf4864d18f0"
        string_val: "16bb3ea9-0bc9-455c-8513-7441a3a9ebb7"
        string_val: "ee98ff29-233b-4e43-b97a-915fd0047b6e"
        string_val: "ee98ff29-233b-4e43-b97a-915fd0047b6e"
        string_val: "06bc5286-c532-4b84-83a8-662e634d89f3"
        string_val: "dd270eb1-d475-4797-af29-e06d80e18fde"
        string_val: "3209800a-470b-430c-8f9a-82f6f4b391ca"
        string_val: "e2294b9a-8b4b-4bca-8331-88eddc7b2590"
        string_val: "e2294b9a-8b4b-4bca-8331-88eddc7b2590"
        string_val: "022e8ca9-e697-4ff4-90b0-037b08dd61a1"
        string_val: "022e8ca9-e697-4ff4-90b0-037b08dd61a1"
        string_val: "391eee67-1879-4e92-a7de-aa6526f62b66"
        string_val: "391eee67-1879-4e92-a7de-aa6526f62b66"
        string_val: "f39b6447-b4e5-44f9-ab8d-702e9ecad526"
        string_val: "f39b6447-b4e5-44f9-ab8d-702e9ecad526"
        string_val: "f3fb01d4-30cd-4453-874b-68f31dffb49e"
        string_val: "f3fb01d4-30cd-4453-874b-68f31dffb49e"
      }
    }
  }
}
node {
  name: "tensors/component_18"
  op: "Const"
  device: "/device:CPU:0"
  attr {
    key: "_output_shapes"
    value {
      list {
        shape {
          dim {
            size: 75
          }
        }
      }
    }
  }
  attr {
    key: "dtype"
    value {
      type: DT_STRING
    }
  }
  attr {
    key: "value"
    value {
      tensor {
        dtype: DT_STRING
        tensor_shape {
          dim {
            size: 75
          }
        }
        string_val: "1157d73d-6c06-4eef-a5f9-e6a77b0d58cb"
        string_val: "1157d73d-6c06-4eef-a5f9-e6a77b0d58cb"
        string_val: "022e8ca9-e697-4ff4-90b0-037b08dd61a1"
        string_val: "022e8ca9-e697-4ff4-90b0-037b08dd61a1"
        string_val: "53df9637-5b69-435c-8514-5bf4864d18f0"
        string_val: "53df9637-5b69-435c-8514-5bf4864d18f0"
        string_val: "a0eb40fa-64fe-4d8f-ad8c-b4392256af44"
        string_val: "f39b6447-b4e5-44f9-ab8d-702e9ecad526"
        string_val: "dd270eb1-d475-4797-af29-e06d80e18fde"
        string_val: "f39b6447-b4e5-44f9-ab8d-702e9ecad526"
        string_val: "06bc5286-c532-4b84-83a8-662e634d89f3"
        string_val: "3e1a9e0a-b52a-4438-9530-05f1937cdc0d"
        string_val: "c2878d86-f830-413d-83fe-a9c46d8c7c84"
        string_val: "3e1a9e0a-b52a-4438-9530-05f1937cdc0d"
        string_val: "c2878d86-f830-413d-83fe-a9c46d8c7c84"
        string_val: "13ebb30b-e5bd-4d1b-8202-8c6fe0052675"
        string_val: "13ebb30b-e5bd-4d1b-8202-8c6fe0052675"
        string_val: "fad3d9c9-f99e-47b6-bef9-6c87fbf85ce6"
        string_val: "6b0eb23a-01f9-43c4-a29e-1477089c6e5d"
        string_val: "6184e577-c5cb-4cc3-a483-c766fa6deae1"
        string_val: "3c9536e2-4742-4125-ae45-8660d511fde5"
        string_val: "40d87854-bf93-4d71-92c8-76ee939b297d"
        string_val: "26a84281-0e22-46b3-9677-670d659ef3df"
        string_val: "40d87854-bf93-4d71-92c8-76ee939b297d"
        string_val: "26a84281-0e22-46b3-9677-670d659ef3df"
        string_val: "61b2d38f-44a9-4728-b237-f436d62be2a2"
        string_val: "74fdc492-237e-4a3b-abbb-ae6d768aacec"
        string_val: "74fdc492-237e-4a3b-abbb-ae6d768aacec"
        string_val: "8e0aae7a-4e70-4820-a04d-2ec1065a6978"
        string_val: "1068e500-a147-4487-aa88-ce9f6ccbe54c"
        string_val: "1ee0bc44-d7ed-45d2-aa1d-1d1545a0f287"
        string_val: "1ee0bc44-d7ed-45d2-aa1d-1d1545a0f287"
        string_val: "fbafacac-ccc7-4f6e-97a3-2a4ec8be2362"
        string_val: "fbafacac-ccc7-4f6e-97a3-2a4ec8be2362"
        string_val: "18111097-6bf6-40cd-8e3a-c814c00c6ea8"
        string_val: "18111097-6bf6-40cd-8e3a-c814c00c6ea8"
        string_val: "37875f23-d365-4881-8b53-b8f3f61e1f1d"
        string_val: "37875f23-d365-4881-8b53-b8f3f61e1f1d"
        string_val: "26a84281-0e22-46b3-9677-670d659ef3df"
        string_val: "26a84281-0e22-46b3-9677-670d659ef3df"
        string_val: "08ca6371-9fa7-4c07-b5ad-d6edc2ed7550"
        string_val: "08ca6371-9fa7-4c07-b5ad-d6edc2ed7550"
        string_val: "1068e500-a147-4487-aa88-ce9f6ccbe54c"
        string_val: "1068e500-a147-4487-aa88-ce9f6ccbe54c"
        string_val: "1ee0bc44-d7ed-45d2-aa1d-1d1545a0f287"
        string_val: "1ee0bc44-d7ed-45d2-aa1d-1d1545a0f287"
        string_val: "28113566-dc5c-4a04-ae77-70bf0f353733"
        string_val: "74fdc492-237e-4a3b-abbb-ae6d768aacec"
        string_val: "16bb3ea9-0bc9-455c-8513-7441a3a9ebb7"
        string_val: "18111097-6bf6-40cd-8e3a-c814c00c6ea8"
        string_val: "45a29d0a-a3c2-4a01-8fb3-9f00259b0ee7"
        string_val: "45a29d0a-a3c2-4a01-8fb3-9f00259b0ee7"
        string_val: "18111097-6bf6-40cd-8e3a-c814c00c6ea8"
        string_val: "6184e577-c5cb-4cc3-a483-c766fa6deae1"
        string_val: "6184e577-c5cb-4cc3-a483-c766fa6deae1"
        string_val: "fbafacac-ccc7-4f6e-97a3-2a4ec8be2362"
        string_val: "f2d27328-ed60-49d8-b484-d32cdf93ac92"
        string_val: "77a0ca3c-5907-45b5-a079-226012215638"
        string_val: "77a0ca3c-5907-45b5-a079-226012215638"
        string_val: "4b0295aa-e83c-484b-91ef-08b246cef7fc"
        string_val: "9abf8b0c-a741-48d2-88aa-cea18fc4b823"
        string_val: "9abf8b0c-a741-48d2-88aa-cea18fc4b823"
        string_val: "d2ee7477-29b3-4fdc-b5f8-e3f04b17a156"
        string_val: "dbd2a0f3-9a91-49b3-999b-c6d5e50a37cd"
        string_val: "161b9e1d-eb0b-4ab7-a296-71d09164124f"
        string_val: "11c8181b-8bde-4b10-b807-e5ca781cf0ba"
        string_val: "11c8181b-8bde-4b10-b807-e5ca781cf0ba"
        string_val: "94e86fbf-0f28-4a59-b330-5f2ecb4201a6"
        string_val: "94e86fbf-0f28-4a59-b330-5f2ecb4201a6"
        string_val: "2c020e3d-8b55-4749-88a4-573e21eba931"
        string_val: "2c020e3d-8b55-4749-88a4-573e21eba931"
        string_val: "9c773594-ec07-4f96-82e6-2ed4096f1cea"
        string_val: "9c773594-ec07-4f96-82e6-2ed4096f1cea"
        string_val: "b8cefd74-4cdc-4f83-9975-b60cddce817e"
        string_val: "b8cefd74-4cdc-4f83-9975-b60cddce817e"
      }
    }
  }
}
node {
  name: "tensors/component_19"
  op: "Const"
  device: "/device:CPU:0"
  attr {
    key: "_output_shapes"
    value {
      list {
        shape {
          dim {
            size: 75
          }
        }
      }
    }
  }
  attr {
    key: "dtype"
    value {
      type: DT_STRING
    }
  }
  attr {
    key: "value"
    value {
      tensor {
        dtype: DT_STRING
        tensor_shape {
          dim {
            size: 75
          }
        }
        string_val: "340f07fa-b5e8-4fd0-9fca-60b2f7304123"
        string_val: "340f07fa-b5e8-4fd0-9fca-60b2f7304123"
        string_val: "59df29de-d8ec-4bfc-b2ed-623d6e81c74a"
        string_val: "59df29de-d8ec-4bfc-b2ed-623d6e81c74a"
        string_val: "b5d6c116-6f3a-4cde-a058-14efb0110392"
        string_val: "b5d6c116-6f3a-4cde-a058-14efb0110392"
        string_val: "1ad52b00-f783-4a9d-87c9-f267cbe66b3b"
        string_val: "af754318-287d-45c7-82ba-71c46d92d91a"
        string_val: "d62a3ff7-2a52-4668-9ba2-fa6b56b54701"
        string_val: "af754318-287d-45c7-82ba-71c46d92d91a"
        string_val: "b99f5ec3-d7df-4fff-958d-6eac71ca2378"
        string_val: "cdd44a57-2a8a-4520-a377-8bbbe90dcf72"
        string_val: "ddfa347f-f072-4bce-964b-2757f22ea107"
        string_val: "cdd44a57-2a8a-4520-a377-8bbbe90dcf72"
        string_val: "ddfa347f-f072-4bce-964b-2757f22ea107"
        string_val: "07b0de07-9a1b-4e14-a21a-9cb4e8a11002"
        string_val: "07b0de07-9a1b-4e14-a21a-9cb4e8a11002"
        string_val: "c323327b-8865-44b5-b374-910374089518"
        string_val: "0a99d1ab-8e8d-4527-83e9-6589c17d4f9d"
        string_val: "dd58767c-c0ed-4394-a096-452587490dd9"
        string_val: "7492c5ec-afd7-481b-9304-5d3e0906a939"
        string_val: "d23431be-6e4f-4f2c-a906-19a05561e8e0"
        string_val: "a008eec2-b9a3-4074-a37c-8c6864b22400"
        string_val: "d23431be-6e4f-4f2c-a906-19a05561e8e0"
        string_val: "a008eec2-b9a3-4074-a37c-8c6864b22400"
        string_val: "e30979b5-baa2-478f-8379-458c6c51581f"
        string_val: "696132c9-1f6f-41c2-8caf-c80a4e81ed0f"
        string_val: "696132c9-1f6f-41c2-8caf-c80a4e81ed0f"
        string_val: "d54d35d1-583d-4bda-b125-789bbc3e9c08"
        string_val: "27874ca0-9d09-4493-97cb-02710999ac56"
        string_val: "2a47e1a6-af84-4169-8e22-0eb2d8617d12"
        string_val: "2a47e1a6-af84-4169-8e22-0eb2d8617d12"
        string_val: "5e34f52a-f2ca-4cdd-aa34-1f9a377e5263"
        string_val: "5e34f52a-f2ca-4cdd-aa34-1f9a377e5263"
        string_val: "5813aeb1-a0fd-4bf2-b08d-b27d5f1d3d93"
        string_val: "5813aeb1-a0fd-4bf2-b08d-b27d5f1d3d93"
        string_val: "8cefb673-e564-4faa-ac0a-df5103880124"
        string_val: "8cefb673-e564-4faa-ac0a-df5103880124"
        string_val: "2395bd40-23ec-43c1-afe3-1c7e420014ac"
        string_val: "2395bd40-23ec-43c1-afe3-1c7e420014ac"
        string_val: "00220be9-2c18-4113-9b5d-fc8ea4c64bc3"
        string_val: "00220be9-2c18-4113-9b5d-fc8ea4c64bc3"
        string_val: "27874ca0-9d09-4493-97cb-02710999ac56"
        string_val: "27874ca0-9d09-4493-97cb-02710999ac56"
        string_val: "2a47e1a6-af84-4169-8e22-0eb2d8617d12"
        string_val: "2a47e1a6-af84-4169-8e22-0eb2d8617d12"
        string_val: "a9edd4cc-364c-4390-8d99-5d6ee10ecd25"
        string_val: "f7b1ae30-2c3e-4478-8ed7-1f680539d136"
        string_val: "94a299dc-7a5f-4c20-8f8e-4f0895fe8410"
        string_val: "5813aeb1-a0fd-4bf2-b08d-b27d5f1d3d93"
        string_val: "d23431be-6e4f-4f2c-a906-19a05561e8e0"
        string_val: "d23431be-6e4f-4f2c-a906-19a05561e8e0"
        string_val: "5813aeb1-a0fd-4bf2-b08d-b27d5f1d3d93"
        string_val: "279c83c7-c00e-4758-b285-5127ae5133c5"
        string_val: "279c83c7-c00e-4758-b285-5127ae5133c5"
        string_val: "5e34f52a-f2ca-4cdd-aa34-1f9a377e5263"
        string_val: "2d8d9dbb-5f90-4774-8302-d3673c63f1f5"
        string_val: "b5d6c116-6f3a-4cde-a058-14efb0110392"
        string_val: "b5d6c116-6f3a-4cde-a058-14efb0110392"
        string_val: "94a299dc-7a5f-4c20-8f8e-4f0895fe8410"
        string_val: "340f07fa-b5e8-4fd0-9fca-60b2f7304123"
        string_val: "340f07fa-b5e8-4fd0-9fca-60b2f7304123"
        string_val: "b99f5ec3-d7df-4fff-958d-6eac71ca2378"
        string_val: "10d9969d-4baf-4c46-b828-b6ba05f92cc3"
        string_val: "b2a93f23-4d3a-48b7-97d6-c09aed2e253f"
        string_val: "9010d82c-20de-4ea4-afc6-accb156b311b"
        string_val: "9010d82c-20de-4ea4-afc6-accb156b311b"
        string_val: "59df29de-d8ec-4bfc-b2ed-623d6e81c74a"
        string_val: "59df29de-d8ec-4bfc-b2ed-623d6e81c74a"
        string_val: "cdd44a57-2a8a-4520-a377-8bbbe90dcf72"
        string_val: "cdd44a57-2a8a-4520-a377-8bbbe90dcf72"
        string_val: "ce98a22e-2ffc-4bae-9062-91975a340c30"
        string_val: "ce98a22e-2ffc-4bae-9062-91975a340c30"
        string_val: "d54d35d1-583d-4bda-b125-789bbc3e9c08"
        string_val: "d54d35d1-583d-4bda-b125-789bbc3e9c08"
      }
    }
  }
}
node {
  name: "tensors/component_20"
  op: "Const"
  device: "/device:CPU:0"
  attr {
    key: "_output_shapes"
    value {
      list {
        shape {
          dim {
            size: 75
          }
        }
      }
    }
  }
  attr {
    key: "dtype"
    value {
      type: DT_STRING
    }
  }
  attr {
    key: "value"
    value {
      tensor {
        dtype: DT_STRING
        tensor_shape {
          dim {
            size: 75
          }
        }
        string_val: "0bfdc658-844e-4b09-b55e-436561c00528"
        string_val: "0bfdc658-844e-4b09-b55e-436561c00528"
        string_val: "30ac976f-1ed2-4fe0-ac54-581271a1ebf6"
        string_val: "30ac976f-1ed2-4fe0-ac54-581271a1ebf6"
        string_val: "4bb2cea3-1af3-4eed-880d-ffb0b613c507"
        string_val: "4bb2cea3-1af3-4eed-880d-ffb0b613c507"
        string_val: "6e1ea0f7-a5f4-48d5-8d9b-bb614c85a7bb"
        string_val: "65748b77-ff58-448a-b782-d7c20098fa8a"
        string_val: "1003f1d0-e38e-4904-b16b-bcbfd85d2f1d"
        string_val: "65748b77-ff58-448a-b782-d7c20098fa8a"
        string_val: "853cec06-48f8-4ed5-9110-45a4d31082bb"
        string_val: "94a11ce9-2275-46b3-8f9c-17325dea2ce6"
        string_val: "4795405d-0401-43d7-a06a-06febc88f8dd"
        string_val: "94a11ce9-2275-46b3-8f9c-17325dea2ce6"
        string_val: "4795405d-0401-43d7-a06a-06febc88f8dd"
        string_val: "a9edd4cc-364c-4390-8d99-5d6ee10ecd25"
        string_val: "a9edd4cc-364c-4390-8d99-5d6ee10ecd25"
        string_val: "6f3cdf62-2fe0-47a7-9a1d-721739ebd3ec"
        string_val: "2d8d9dbb-5f90-4774-8302-d3673c63f1f5"
        string_val: "47d65ed7-64a7-4205-8223-c16e3db52b65"
        string_val: "87ed1982-fac0-46f8-ae61-82fb218431c3"
        string_val: "f3bc94b0-54a3-494b-bdeb-8d55ba722cd2"
        string_val: "138c9eab-769c-436d-9b0f-43bfa0969a45"
        string_val: "f3bc94b0-54a3-494b-bdeb-8d55ba722cd2"
        string_val: "138c9eab-769c-436d-9b0f-43bfa0969a45"
        string_val: "33127f75-1090-44a3-92ae-5acb05b66622"
        string_val: "f7b1ae30-2c3e-4478-8ed7-1f680539d136"
        string_val: "f7b1ae30-2c3e-4478-8ed7-1f680539d136"
        string_val: "35f9d71b-d618-4932-b7bf-921a10df736f"
        string_val: "0d96be71-3075-49d3-b6a7-3a304739d517"
        string_val: "be3511fc-bc84-43e4-be2d-f457a3d46cc7"
        string_val: "be3511fc-bc84-43e4-be2d-f457a3d46cc7"
        string_val: "c89711d2-783a-45d4-918b-de1250f32f13"
        string_val: "c89711d2-783a-45d4-918b-de1250f32f13"
        string_val: "cb1f2a76-b6e1-455c-9696-ac3d80607ec3"
        string_val: "cb1f2a76-b6e1-455c-9696-ac3d80607ec3"
        string_val: "00220be9-2c18-4113-9b5d-fc8ea4c64bc3"
        string_val: "00220be9-2c18-4113-9b5d-fc8ea4c64bc3"
        string_val: "138c9eab-769c-436d-9b0f-43bfa0969a45"
        string_val: "138c9eab-769c-436d-9b0f-43bfa0969a45"
        string_val: "7e2e655f-249f-4c29-ab7e-b82fd8c5d313"
        string_val: "7e2e655f-249f-4c29-ab7e-b82fd8c5d313"
        string_val: "0d96be71-3075-49d3-b6a7-3a304739d517"
        string_val: "0d96be71-3075-49d3-b6a7-3a304739d517"
        string_val: "be3511fc-bc84-43e4-be2d-f457a3d46cc7"
        string_val: "be3511fc-bc84-43e4-be2d-f457a3d46cc7"
        string_val: "fed60ff8-a418-47dd-96c0-8f116b61a6f0"
        string_val: "516a4569-7402-4433-bac8-4edf78d76f08"
        string_val: "45fc89d1-bfff-43a0-9a4f-58257be9cc90"
        string_val: "cb1f2a76-b6e1-455c-9696-ac3d80607ec3"
        string_val: "f3bc94b0-54a3-494b-bdeb-8d55ba722cd2"
        string_val: "f3bc94b0-54a3-494b-bdeb-8d55ba722cd2"
        string_val: "cb1f2a76-b6e1-455c-9696-ac3d80607ec3"
        string_val: "47d65ed7-64a7-4205-8223-c16e3db52b65"
        string_val: "47d65ed7-64a7-4205-8223-c16e3db52b65"
        string_val: "d0e7b23d-5ba4-40c2-b910-b92eb1ffde05"
        string_val: "3bd36098-e917-4217-8345-14ff6e964e84"
        string_val: "b4a46529-f276-4b82-915d-f7a41639746a"
        string_val: "b4a46529-f276-4b82-915d-f7a41639746a"
        string_val: "45fc89d1-bfff-43a0-9a4f-58257be9cc90"
        string_val: "0bfdc658-844e-4b09-b55e-436561c00528"
        string_val: "0bfdc658-844e-4b09-b55e-436561c00528"
        string_val: "490dfa30-a9f5-4377-8e05-b64ddac3349c"
        string_val: "9a97262f-0fe7-4664-ac14-2fca25118819"
        string_val: "1ad52b00-f783-4a9d-87c9-f267cbe66b3b"
        string_val: "728a022f-b854-42c3-ad2d-7740cbf94802"
        string_val: "728a022f-b854-42c3-ad2d-7740cbf94802"
        string_val: "30ac976f-1ed2-4fe0-ac54-581271a1ebf6"
        string_val: "30ac976f-1ed2-4fe0-ac54-581271a1ebf6"
        string_val: "94a11ce9-2275-46b3-8f9c-17325dea2ce6"
        string_val: "94a11ce9-2275-46b3-8f9c-17325dea2ce6"
        string_val: "65748b77-ff58-448a-b782-d7c20098fa8a"
        string_val: "65748b77-ff58-448a-b782-d7c20098fa8a"
        string_val: "35f9d71b-d618-4932-b7bf-921a10df736f"
        string_val: "35f9d71b-d618-4932-b7bf-921a10df736f"
      }
    }
  }
}
node {
  name: "tensors/component_21"
  op: "Const"
  device: "/device:CPU:0"
  attr {
    key: "_output_shapes"
    value {
      list {
        shape {
          dim {
            size: 75
          }
        }
      }
    }
  }
  attr {
    key: "dtype"
    value {
      type: DT_STRING
    }
  }
  attr {
    key: "value"
    value {
      tensor {
        dtype: DT_STRING
        tensor_shape {
          dim {
            size: 75
          }
        }
        string_val: "fbc5f164-e12a-495e-aff0-1bba1d27abfb"
        string_val: "fbc5f164-e12a-495e-aff0-1bba1d27abfb"
        string_val: "293d1bad-e4b8-470c-90be-20a58c3c5737"
        string_val: "293d1bad-e4b8-470c-90be-20a58c3c5737"
        string_val: "1e205043-ea2c-4ad0-b3cc-07c4f3bc29e0"
        string_val: "1e205043-ea2c-4ad0-b3cc-07c4f3bc29e0"
        string_val: "b2a93f23-4d3a-48b7-97d6-c09aed2e253f"
        string_val: "9e3543ba-3df8-4f9d-a570-502044f0342e"
        string_val: "10d9969d-4baf-4c46-b828-b6ba05f92cc3"
        string_val: "9e3543ba-3df8-4f9d-a570-502044f0342e"
        string_val: "ca010d72-f01a-48c2-b254-9cc238509453"
        string_val: "5b1c21c5-b786-43ff-b5fa-2ef87900f3eb"
        string_val: "ff2eb1b1-be49-4dab-aefe-24d2943d18b1"
        string_val: "5b1c21c5-b786-43ff-b5fa-2ef87900f3eb"
        string_val: "ff2eb1b1-be49-4dab-aefe-24d2943d18b1"
        string_val: "5755aaed-25c6-4695-a5f1-503d0fcd7ad4"
        string_val: "5755aaed-25c6-4695-a5f1-503d0fcd7ad4"
        string_val: "f877311f-e8b1-4202-9962-873b6f914854"
        string_val: "574b6cd9-dabb-4a5a-85ac-486c61c66027"
        string_val: "75b87260-1a60-416b-91ae-55c8b417c4a5"
        string_val: "61f40642-5dd1-420b-b4fa-1cf6c6c14866"
        string_val: "6c9f33e5-dd45-44f7-8877-e68b7313791e"
        string_val: "ee969cdc-05db-4c79-84be-76b69aa8cbd2"
        string_val: "6c9f33e5-dd45-44f7-8877-e68b7313791e"
        string_val: "ee969cdc-05db-4c79-84be-76b69aa8cbd2"
        string_val: "435d8603-7d73-4fb4-84ec-7c02f11079bd"
        string_val: "fe27cc57-0dd0-4db5-8912-fdcf1defd065"
        string_val: "fe27cc57-0dd0-4db5-8912-fdcf1defd065"
        string_val: "0d44c3d1-5319-4c99-b05e-9112c0fd5edc"
        string_val: "7ce73172-fcef-4120-a390-296d7d9fcaec"
        string_val: "049050a5-8280-401b-80e4-8357e36b8f22"
        string_val: "049050a5-8280-401b-80e4-8357e36b8f22"
        string_val: "96c730a1-9cb9-4a79-84b9-b76f9de44fa9"
        string_val: "96c730a1-9cb9-4a79-84b9-b76f9de44fa9"
        string_val: "11837ed7-5eef-44ee-a372-8c2c7235e79b"
        string_val: "11837ed7-5eef-44ee-a372-8c2c7235e79b"
        string_val: "209f5539-e6e4-4c2f-95bc-3ee4ba8fd138"
        string_val: "209f5539-e6e4-4c2f-95bc-3ee4ba8fd138"
        string_val: "ee969cdc-05db-4c79-84be-76b69aa8cbd2"
        string_val: "ee969cdc-05db-4c79-84be-76b69aa8cbd2"
        string_val: "5530fdf6-4165-48e2-b1e6-d6e1fb76ce30"
        string_val: "5530fdf6-4165-48e2-b1e6-d6e1fb76ce30"
        string_val: "7ce73172-fcef-4120-a390-296d7d9fcaec"
        string_val: "7ce73172-fcef-4120-a390-296d7d9fcaec"
        string_val: "049050a5-8280-401b-80e4-8357e36b8f22"
        string_val: "049050a5-8280-401b-80e4-8357e36b8f22"
        string_val: "2c903fa9-da32-4813-8736-673331a46a93"
        string_val: "fe27cc57-0dd0-4db5-8912-fdcf1defd065"
        string_val: "19394a11-ee35-4e44-b431-7ba2f8706d5e"
        string_val: "11837ed7-5eef-44ee-a372-8c2c7235e79b"
        string_val: "0072b293-bc1d-4679-a59f-6df2d2e41e55"
        string_val: "0072b293-bc1d-4679-a59f-6df2d2e41e55"
        string_val: "11837ed7-5eef-44ee-a372-8c2c7235e79b"
        string_val: "75b87260-1a60-416b-91ae-55c8b417c4a5"
        string_val: "75b87260-1a60-416b-91ae-55c8b417c4a5"
        string_val: "96c730a1-9cb9-4a79-84b9-b76f9de44fa9"
        string_val: "574b6cd9-dabb-4a5a-85ac-486c61c66027"
        string_val: "97d7883d-5f7e-41fd-b565-a18097376908"
        string_val: "97d7883d-5f7e-41fd-b565-a18097376908"
        string_val: "19394a11-ee35-4e44-b431-7ba2f8706d5e"
        string_val: "d02b8deb-7426-4013-a108-380f9f76a78f"
        string_val: "d02b8deb-7426-4013-a108-380f9f76a78f"
        string_val: "9afe4697-b629-4f87-8adc-fb08f601c036"
        string_val: "a077c389-bccb-4443-ba7d-03c8ea7bb2b4"
        string_val: "3e065c0c-7fce-412e-a486-c4970b272bef"
        string_val: "ff2eb1b1-be49-4dab-aefe-24d2943d18b1"
        string_val: "ff2eb1b1-be49-4dab-aefe-24d2943d18b1"
        string_val: "293d1bad-e4b8-470c-90be-20a58c3c5737"
        string_val: "293d1bad-e4b8-470c-90be-20a58c3c5737"
        string_val: "5b1c21c5-b786-43ff-b5fa-2ef87900f3eb"
        string_val: "5b1c21c5-b786-43ff-b5fa-2ef87900f3eb"
        string_val: "9e3543ba-3df8-4f9d-a570-502044f0342e"
        string_val: "9e3543ba-3df8-4f9d-a570-502044f0342e"
        string_val: "0d44c3d1-5319-4c99-b05e-9112c0fd5edc"
        string_val: "0d44c3d1-5319-4c99-b05e-9112c0fd5edc"
      }
    }
  }
}
node {
  name: "tensors/component_22"
  op: "Const"
  device: "/device:CPU:0"
  attr {
    key: "_output_shapes"
    value {
      list {
        shape {
          dim {
            size: 75
          }
        }
      }
    }
  }
  attr {
    key: "dtype"
    value {
      type: DT_STRING
    }
  }
  attr {
    key: "value"
    value {
      tensor {
        dtype: DT_STRING
        tensor_shape {
          dim {
            size: 75
          }
        }
        string_val: "47545df5-5d29-439a-98fd-bf3f471a9129"
        string_val: "47545df5-5d29-439a-98fd-bf3f471a9129"
        string_val: "0977b875-b240-45c5-9b5d-a26608636311"
        string_val: "0977b875-b240-45c5-9b5d-a26608636311"
        string_val: "fb2276fb-54fc-45fb-888f-1a00d28ee126"
        string_val: "fb2276fb-54fc-45fb-888f-1a00d28ee126"
        string_val: "d66896f6-3652-4227-9e8d-6910f4e59e2f"
        string_val: "355d1608-10a7-4de1-b92f-f9b0e8893f45"
        string_val: "a7967765-365d-4094-8468-fbf1de74efa8"
        string_val: "355d1608-10a7-4de1-b92f-f9b0e8893f45"
        string_val: "9afe4697-b629-4f87-8adc-fb08f601c036"
        string_val: "0977b875-b240-45c5-9b5d-a26608636311"
        string_val: "463029dd-64fe-431b-ad95-90bad2b4babb"
        string_val: "0977b875-b240-45c5-9b5d-a26608636311"
        string_val: "463029dd-64fe-431b-ad95-90bad2b4babb"
        string_val: "94db0cf5-bf55-4aac-a8c5-1dd7a013a27b"
        string_val: "94db0cf5-bf55-4aac-a8c5-1dd7a013a27b"
        string_val: "cd669e8b-c5ff-4527-89a2-50e976aaa2d5"
        string_val: "3bd36098-e917-4217-8345-14ff6e964e84"
        string_val: "efc769dd-f870-468c-89a3-66eeb584046d"
        string_val: "6469d194-c0a1-43ed-95d0-af8cbc3b199a"
        string_val: "3b122d83-7eee-4892-9dd7-517a3bc13e8d"
        string_val: "32a2060c-c4f0-4b77-955c-f0b8befc6206"
        string_val: "3b122d83-7eee-4892-9dd7-517a3bc13e8d"
        string_val: "32a2060c-c4f0-4b77-955c-f0b8befc6206"
        string_val: "3209c5dc-1732-4997-af2a-42fe7b02af45"
        string_val: "2546c63f-4092-4158-821f-e84fd2438b15"
        string_val: "2546c63f-4092-4158-821f-e84fd2438b15"
        string_val: "34fc9a72-0c25-47f7-b673-34e9557cd1ea"
        string_val: "ee9507b7-0dbf-4d14-b49d-235fc4aa318c"
        string_val: "87e478d1-e457-415d-9188-e6d181dafad8"
        string_val: "87e478d1-e457-415d-9188-e6d181dafad8"
        string_val: "18fcf45b-2ab6-4294-89e6-bbfadf8acec3"
        string_val: "18fcf45b-2ab6-4294-89e6-bbfadf8acec3"
        string_val: "5633e6a8-a584-401f-9338-b3dd53f334fb"
        string_val: "5633e6a8-a584-401f-9338-b3dd53f334fb"
        string_val: "7e2e655f-249f-4c29-ab7e-b82fd8c5d313"
        string_val: "7e2e655f-249f-4c29-ab7e-b82fd8c5d313"
        string_val: "32a2060c-c4f0-4b77-955c-f0b8befc6206"
        string_val: "32a2060c-c4f0-4b77-955c-f0b8befc6206"
        string_val: "209f5539-e6e4-4c2f-95bc-3ee4ba8fd138"
        string_val: "209f5539-e6e4-4c2f-95bc-3ee4ba8fd138"
        string_val: "ee9507b7-0dbf-4d14-b49d-235fc4aa318c"
        string_val: "ee9507b7-0dbf-4d14-b49d-235fc4aa318c"
        string_val: "87e478d1-e457-415d-9188-e6d181dafad8"
        string_val: "87e478d1-e457-415d-9188-e6d181dafad8"
        string_val: "13ebb30b-e5bd-4d1b-8202-8c6fe0052675"
        string_val: "2546c63f-4092-4158-821f-e84fd2438b15"
        string_val: "db062cf1-afeb-43c3-ad24-2b71085e0fe8"
        string_val: "cb83c62d-41c1-4bed-8f0f-1ea9d36880dc"
        string_val: "3b122d83-7eee-4892-9dd7-517a3bc13e8d"
        string_val: "3b122d83-7eee-4892-9dd7-517a3bc13e8d"
        string_val: "cb83c62d-41c1-4bed-8f0f-1ea9d36880dc"
        string_val: "efc769dd-f870-468c-89a3-66eeb584046d"
        string_val: "efc769dd-f870-468c-89a3-66eeb584046d"
        string_val: "18fcf45b-2ab6-4294-89e6-bbfadf8acec3"
        string_val: "7a3afe61-2228-4d2c-92ea-9589c6b86c28"
        string_val: "fb2276fb-54fc-45fb-888f-1a00d28ee126"
        string_val: "fb2276fb-54fc-45fb-888f-1a00d28ee126"
        string_val: "db062cf1-afeb-43c3-ad24-2b71085e0fe8"
        string_val: "47545df5-5d29-439a-98fd-bf3f471a9129"
        string_val: "47545df5-5d29-439a-98fd-bf3f471a9129"
        string_val: "082dba57-0795-454f-a974-089fc8d535fd"
        string_val: "dad0d89c-afb5-4a92-9603-851d25daa4f4"
        string_val: "d66896f6-3652-4227-9e8d-6910f4e59e2f"
        string_val: "463029dd-64fe-431b-ad95-90bad2b4babb"
        string_val: "463029dd-64fe-431b-ad95-90bad2b4babb"
        string_val: "0977b875-b240-45c5-9b5d-a26608636311"
        string_val: "0977b875-b240-45c5-9b5d-a26608636311"
        string_val: "0977b875-b240-45c5-9b5d-a26608636311"
        string_val: "0977b875-b240-45c5-9b5d-a26608636311"
        string_val: "355d1608-10a7-4de1-b92f-f9b0e8893f45"
        string_val: "355d1608-10a7-4de1-b92f-f9b0e8893f45"
        string_val: "34fc9a72-0c25-47f7-b673-34e9557cd1ea"
        string_val: "34fc9a72-0c25-47f7-b673-34e9557cd1ea"
      }
    }
  }
}
node {
  name: "tensors/component_23"
  op: "Const"
  device: "/device:CPU:0"
  attr {
    key: "_output_shapes"
    value {
      list {
        shape {
          dim {
            size: 75
          }
        }
      }
    }
  }
  attr {
    key: "dtype"
    value {
      type: DT_STRING
    }
  }
  attr {
    key: "value"
    value {
      tensor {
        dtype: DT_STRING
        tensor_shape {
          dim {
            size: 75
          }
        }
        string_val: "7465d9b1-e46f-4427-b49e-a7da2aba20e2"
        string_val: "7465d9b1-e46f-4427-b49e-a7da2aba20e2"
        string_val: "c88757fa-cb9f-413e-bdef-4c06023891c9"
        string_val: "c88757fa-cb9f-413e-bdef-4c06023891c9"
        string_val: "f7aac008-221a-4e3b-a86f-72e74747244e"
        string_val: "f7aac008-221a-4e3b-a86f-72e74747244e"
        string_val: "0628ba8a-1d02-4899-828f-2d959db2aedd"
        string_val: "8fec954f-64ee-4687-a175-84cd1d2f1487"
        string_val: "5fd5996f-9409-4a19-b858-0c3f1af8b34b"
        string_val: "8fec954f-64ee-4687-a175-84cd1d2f1487"
        string_val: "d747a9be-0c94-4d90-9e9d-2319a30e37b0"
        string_val: "9bc73ba2-01e3-4b8e-9414-d31760ac757e"
        string_val: "db062cf1-afeb-43c3-ad24-2b71085e0fe8"
        string_val: "9bc73ba2-01e3-4b8e-9414-d31760ac757e"
        string_val: "db062cf1-afeb-43c3-ad24-2b71085e0fe8"
        string_val: "2c903fa9-da32-4813-8736-673331a46a93"
        string_val: "2c903fa9-da32-4813-8736-673331a46a93"
        string_val: "c67458dc-c14c-4c4f-816e-49a76ebb6d00"
        string_val: "93333a7f-609c-462c-9f48-a15e25424047"
        string_val: "7756b624-b9f1-471f-8c64-812326c467d8"
        string_val: "cef25ffa-2746-4914-b9f8-e3b1598d8b2e"
        string_val: "a78068dd-298e-4630-a040-ce36b622b467"
        string_val: "fe71bb6b-af93-41a9-aedc-709ba855ace7"
        string_val: "a78068dd-298e-4630-a040-ce36b622b467"
        string_val: "fe71bb6b-af93-41a9-aedc-709ba855ace7"
        string_val: "c2aebd35-73fd-4019-8c76-0c9806ebff93"
        string_val: "b86b0273-e0f4-429f-9d38-eb9ac3d25b72"
        string_val: "b86b0273-e0f4-429f-9d38-eb9ac3d25b72"
        string_val: "1f8168fa-94a7-4ad7-a8ff-fc84d99fc877"
        string_val: "ce98a22e-2ffc-4bae-9062-91975a340c30"
        string_val: "06593de8-8bbd-479f-8590-e6632e2126dd"
        string_val: "06593de8-8bbd-479f-8590-e6632e2126dd"
        string_val: "1e97c9e7-4696-45af-abf6-fad3b046df7b"
        string_val: "1e97c9e7-4696-45af-abf6-fad3b046df7b"
        string_val: "2e205f15-e7b3-4c65-b5af-a84fd0fab0ae"
        string_val: "2e205f15-e7b3-4c65-b5af-a84fd0fab0ae"
        string_val: "8ebcea9c-62a8-4a11-bf0b-6cc9527f2eaa"
        string_val: "8ebcea9c-62a8-4a11-bf0b-6cc9527f2eaa"
        string_val: "fe71bb6b-af93-41a9-aedc-709ba855ace7"
        string_val: "fe71bb6b-af93-41a9-aedc-709ba855ace7"
        string_val: "8ebcea9c-62a8-4a11-bf0b-6cc9527f2eaa"
        string_val: "8ebcea9c-62a8-4a11-bf0b-6cc9527f2eaa"
        string_val: "ce98a22e-2ffc-4bae-9062-91975a340c30"
        string_val: "ce98a22e-2ffc-4bae-9062-91975a340c30"
        string_val: "111d35c1-1228-4af1-b6f2-822b470c134c"
        string_val: "111d35c1-1228-4af1-b6f2-822b470c134c"
        string_val: "94db0cf5-bf55-4aac-a8c5-1dd7a013a27b"
        string_val: "e7b59013-370f-4d3f-934c-f1ce0e37f66c"
        string_val: "1144f9b0-93fd-4f91-85a7-4bd658e58fc0"
        string_val: "2e205f15-e7b3-4c65-b5af-a84fd0fab0ae"
        string_val: "a78068dd-298e-4630-a040-ce36b622b467"
        string_val: "a78068dd-298e-4630-a040-ce36b622b467"
        string_val: "2e205f15-e7b3-4c65-b5af-a84fd0fab0ae"
        string_val: "1d0a1570-0adc-4a9e-8278-b587cb570ba9"
        string_val: "1d0a1570-0adc-4a9e-8278-b587cb570ba9"
        string_val: "3d64b21e-79a3-4b44-bbb3-7b5c7a5ca77c"
        string_val: "580cd15d-6610-4121-a96c-b8be102ef651"
        string_val: "f7aac008-221a-4e3b-a86f-72e74747244e"
        string_val: "f7aac008-221a-4e3b-a86f-72e74747244e"
        string_val: "1144f9b0-93fd-4f91-85a7-4bd658e58fc0"
        string_val: "7465d9b1-e46f-4427-b49e-a7da2aba20e2"
        string_val: "7465d9b1-e46f-4427-b49e-a7da2aba20e2"
        string_val: "7faeaaf4-6350-4825-acde-d8ffa4442e47"
        string_val: "f0440f5d-2f17-4baa-9569-fbb7f2e24400"
        string_val: "0628ba8a-1d02-4899-828f-2d959db2aedd"
        string_val: "3627e2f6-2675-458b-ad0d-2d4ff3da7210"
        string_val: "3627e2f6-2675-458b-ad0d-2d4ff3da7210"
        string_val: "64dc86ea-f0fc-4b63-a355-c86ce4ea61a0"
        string_val: "64dc86ea-f0fc-4b63-a355-c86ce4ea61a0"
        string_val: "9bc73ba2-01e3-4b8e-9414-d31760ac757e"
        string_val: "9bc73ba2-01e3-4b8e-9414-d31760ac757e"
        string_val: "2c0c0168-f85a-465f-a58b-2f76db0baef6"
        string_val: "2c0c0168-f85a-465f-a58b-2f76db0baef6"
        string_val: "d97f3510-6049-46c7-a1c6-2d2d40ea9073"
        string_val: "d97f3510-6049-46c7-a1c6-2d2d40ea9073"
      }
    }
  }
}
node {
  name: "tensors/component_24"
  op: "Const"
  device: "/device:CPU:0"
  attr {
    key: "_output_shapes"
    value {
      list {
        shape {
          dim {
            size: 75
          }
        }
      }
    }
  }
  attr {
    key: "dtype"
    value {
      type: DT_STRING
    }
  }
  attr {
    key: "value"
    value {
      tensor {
        dtype: DT_STRING
        tensor_shape {
          dim {
            size: 75
          }
        }
        string_val: "649da738-bac2-4798-ac71-6ebc3c7a8559"
        string_val: "649da738-bac2-4798-ac71-6ebc3c7a8559"
        string_val: "bd55075d-28c7-4a7c-aaf7-daf15aea7e2e"
        string_val: "bd55075d-28c7-4a7c-aaf7-daf15aea7e2e"
        string_val: "9ba25768-d067-4ad3-8ac8-aca259946ebf"
        string_val: "9ba25768-d067-4ad3-8ac8-aca259946ebf"
        string_val: "b0e4cd84-93cf-4961-8bfc-26817d367c0b"
        string_val: "03ef219d-a797-4831-af03-ccd852cfa42a"
        string_val: "f0440f5d-2f17-4baa-9569-fbb7f2e24400"
        string_val: "03ef219d-a797-4831-af03-ccd852cfa42a"
        string_val: "23b97238-981a-424c-8898-ec7ded26bc15"
        string_val: "ee4a8da4-849a-4843-9a9c-81a49336f933"
        string_val: "371a24a9-990a-4cec-9ea3-f914ec3b3999"
        string_val: "ee4a8da4-849a-4843-9a9c-81a49336f933"
        string_val: "371a24a9-990a-4cec-9ea3-f914ec3b3999"
        string_val: "4b42cc16-6b77-43bb-82b6-5ab782ab5b93"
        string_val: "4b42cc16-6b77-43bb-82b6-5ab782ab5b93"
        string_val: "260ce816-f162-46f1-92ca-8ab2cb5df050"
        string_val: "2ea4697d-efe2-42d3-9286-8577f989baae"
        string_val: "a4db5ec5-d95e-4ec8-8512-c9cbdd408853"
        string_val: "c21b19ad-5de2-4944-a9b5-addc8f8ab997"
        string_val: "0e32b32c-0d2b-4693-8766-bd87953cbd54"
        string_val: "692765c2-9980-4e9d-9bc7-61761fb683e6"
        string_val: "0e32b32c-0d2b-4693-8766-bd87953cbd54"
        string_val: "692765c2-9980-4e9d-9bc7-61761fb683e6"
        string_val: "74f27074-142b-41f3-b494-d3ea0b062e8f"
        string_val: "c4357c50-faff-4db2-9cfa-10d623ab081d"
        string_val: "c4357c50-faff-4db2-9cfa-10d623ab081d"
        string_val: "d97f3510-6049-46c7-a1c6-2d2d40ea9073"
        string_val: "447be0cf-7193-4494-9430-b83ee5214bd2"
        string_val: "6abe528c-bc98-4c57-8e9c-217335d169b7"
        string_val: "6abe528c-bc98-4c57-8e9c-217335d169b7"
        string_val: "8da79da1-ccc0-4282-a291-3a78e025d78a"
        string_val: "8da79da1-ccc0-4282-a291-3a78e025d78a"
        string_val: "3b6f23df-9990-446a-be08-50c5188428a2"
        string_val: "3b6f23df-9990-446a-be08-50c5188428a2"
        string_val: "161b9e1d-eb0b-4ab7-a296-71d09164124f"
        string_val: "161b9e1d-eb0b-4ab7-a296-71d09164124f"
        string_val: "e9bb74dd-f989-4890-9ec4-9c1084383def"
        string_val: "e9bb74dd-f989-4890-9ec4-9c1084383def"
        string_val: "161b9e1d-eb0b-4ab7-a296-71d09164124f"
        string_val: "161b9e1d-eb0b-4ab7-a296-71d09164124f"
        string_val: "447be0cf-7193-4494-9430-b83ee5214bd2"
        string_val: "447be0cf-7193-4494-9430-b83ee5214bd2"
        string_val: "06593de8-8bbd-479f-8590-e6632e2126dd"
        string_val: "06593de8-8bbd-479f-8590-e6632e2126dd"
        string_val: "2c28418b-f2e7-4014-aeae-454d64c7e364"
        string_val: "b86b0273-e0f4-429f-9d38-eb9ac3d25b72"
        string_val: "d0aac5cc-8cbe-4158-9073-9f719e345054"
        string_val: "3b6f23df-9990-446a-be08-50c5188428a2"
        string_val: "0e32b32c-0d2b-4693-8766-bd87953cbd54"
        string_val: "0e32b32c-0d2b-4693-8766-bd87953cbd54"
        string_val: "3b6f23df-9990-446a-be08-50c5188428a2"
        string_val: "fc240611-89f2-426e-901e-ef0a2d9582a5"
        string_val: "fc240611-89f2-426e-901e-ef0a2d9582a5"
        string_val: "1e97c9e7-4696-45af-abf6-fad3b046df7b"
        string_val: "96d6e9fd-0f4d-4f0f-bde6-e4dff67d9e55"
        string_val: "9ba25768-d067-4ad3-8ac8-aca259946ebf"
        string_val: "9ba25768-d067-4ad3-8ac8-aca259946ebf"
        string_val: "c323327b-8865-44b5-b374-910374089518"
        string_val: "01eac7ec-c121-4a58-a0c9-d810fad1bff8"
        string_val: "01eac7ec-c121-4a58-a0c9-d810fad1bff8"
        string_val: "652202f3-10c3-418d-9b9f-015587b62da4"
        string_val: "5fd5996f-9409-4a19-b858-0c3f1af8b34b"
        string_val: "b0e4cd84-93cf-4961-8bfc-26817d367c0b"
        string_val: "a05c0296-ea7e-43c6-b1d4-5e3cfb9ffd40"
        string_val: "a05c0296-ea7e-43c6-b1d4-5e3cfb9ffd40"
        string_val: "c88757fa-cb9f-413e-bdef-4c06023891c9"
        string_val: "c88757fa-cb9f-413e-bdef-4c06023891c9"
        string_val: "ee4a8da4-849a-4843-9a9c-81a49336f933"
        string_val: "ee4a8da4-849a-4843-9a9c-81a49336f933"
        string_val: "ec14a9e1-c66b-4da1-a0d0-5918f515c85d"
        string_val: "ec14a9e1-c66b-4da1-a0d0-5918f515c85d"
        string_val: "b72b8151-e47e-4cda-acfe-0ba8a16d73a7"
        string_val: "b72b8151-e47e-4cda-acfe-0ba8a16d73a7"
      }
    }
  }
}
node {
  name: "tensors/component_25"
  op: "Const"
  device: "/device:CPU:0"
  attr {
    key: "_output_shapes"
    value {
      list {
        shape {
          dim {
            size: 75
          }
        }
      }
    }
  }
  attr {
    key: "dtype"
    value {
      type: DT_STRING
    }
  }
  attr {
    key: "value"
    value {
      tensor {
        dtype: DT_STRING
        tensor_shape {
          dim {
            size: 75
          }
        }
        string_val: "01eac7ec-c121-4a58-a0c9-d810fad1bff8"
        string_val: "01eac7ec-c121-4a58-a0c9-d810fad1bff8"
        string_val: "31aa2d9f-b3e7-499f-b9ba-f2c93b83c880"
        string_val: "31aa2d9f-b3e7-499f-b9ba-f2c93b83c880"
        string_val: "6beebba5-0ed2-4dfc-af03-4ccc5f367500"
        string_val: "6beebba5-0ed2-4dfc-af03-4ccc5f367500"
        string_val: "0548898a-dd95-4061-8d30-2515c6149768"
        string_val: "ec14a9e1-c66b-4da1-a0d0-5918f515c85d"
        string_val: "dbd2a0f3-9a91-49b3-999b-c6d5e50a37cd"
        string_val: "ec14a9e1-c66b-4da1-a0d0-5918f515c85d"
        string_val: "7faeaaf4-6350-4825-acde-d8ffa4442e47"
        string_val: "0c7a6a7e-9e35-4692-ad6b-b05b20357e07"
        string_val: "589ae468-0242-409e-9231-a9de9944896b"
        string_val: "0c7a6a7e-9e35-4692-ad6b-b05b20357e07"
        string_val: "589ae468-0242-409e-9231-a9de9944896b"
        string_val: "2c28418b-f2e7-4014-aeae-454d64c7e364"
        string_val: "2c28418b-f2e7-4014-aeae-454d64c7e364"
        string_val: "edf0c164-419d-4c03-89b5-b904448d146f"
        string_val: "d98b0deb-c2b5-44ce-aef5-f8e1b0d4aecb"
        string_val: "e5f0396c-2c25-43c8-9fe7-2179b0543c26"
        string_val: "9d17918a-e3fd-4fc6-b2bb-3666bfc93f87"
        string_val: "60c0673d-0487-48d0-b2c3-bf23abd55778"
        string_val: "e9bb74dd-f989-4890-9ec4-9c1084383def"
        string_val: "60c0673d-0487-48d0-b2c3-bf23abd55778"
        string_val: "e9bb74dd-f989-4890-9ec4-9c1084383def"
        string_val: "c998f9c1-3b42-4d32-bd30-d361f8402a0c"
        string_val: "e7b59013-370f-4d3f-934c-f1ce0e37f66c"
        string_val: "e7b59013-370f-4d3f-934c-f1ce0e37f66c"
        string_val: "b72b8151-e47e-4cda-acfe-0ba8a16d73a7"
        string_val: "e6573cbb-bb33-408a-a1a5-856591fe1c9e"
        string_val: "111d35c1-1228-4af1-b6f2-822b470c134c"
        string_val: "111d35c1-1228-4af1-b6f2-822b470c134c"
        string_val: "e934a3bd-1ffd-4ae6-9278-3acfa42b199a"
        string_val: "e934a3bd-1ffd-4ae6-9278-3acfa42b199a"
        string_val: "4d7b21a1-998f-4ad9-b8bb-e06ff43f92b2"
        string_val: "4d7b21a1-998f-4ad9-b8bb-e06ff43f92b2"
        string_val: "839a7a51-5934-4b40-b273-c1cab15f9634"
        string_val: "839a7a51-5934-4b40-b273-c1cab15f9634"
        string_val: "692765c2-9980-4e9d-9bc7-61761fb683e6"
        string_val: "692765c2-9980-4e9d-9bc7-61761fb683e6"
        string_val: "37875f23-d365-4881-8b53-b8f3f61e1f1d"
        string_val: "37875f23-d365-4881-8b53-b8f3f61e1f1d"
        string_val: "e6573cbb-bb33-408a-a1a5-856591fe1c9e"
        string_val: "e6573cbb-bb33-408a-a1a5-856591fe1c9e"
        string_val: "6abe528c-bc98-4c57-8e9c-217335d169b7"
        string_val: "6abe528c-bc98-4c57-8e9c-217335d169b7"
        string_val: "4b42cc16-6b77-43bb-82b6-5ab782ab5b93"
        string_val: "c4357c50-faff-4db2-9cfa-10d623ab081d"
        string_val: "c323327b-8865-44b5-b374-910374089518"
        string_val: "4d7b21a1-998f-4ad9-b8bb-e06ff43f92b2"
        string_val: "60c0673d-0487-48d0-b2c3-bf23abd55778"
        string_val: "60c0673d-0487-48d0-b2c3-bf23abd55778"
        string_val: "4d7b21a1-998f-4ad9-b8bb-e06ff43f92b2"
        string_val: "e5f0396c-2c25-43c8-9fe7-2179b0543c26"
        string_val: "e5f0396c-2c25-43c8-9fe7-2179b0543c26"
        string_val: "e934a3bd-1ffd-4ae6-9278-3acfa42b199a"
        string_val: "98f532d8-8512-44b7-b200-3a655b796c78"
        string_val: "f0f25b37-776c-48dc-8234-cdf0c79ff18e"
        string_val: "f0f25b37-776c-48dc-8234-cdf0c79ff18e"
        string_val: "471fdc43-85ca-48f3-a63f-cef7995025b4"
        string_val: "649da738-bac2-4798-ac71-6ebc3c7a8559"
        string_val: "649da738-bac2-4798-ac71-6ebc3c7a8559"
        string_val: "b6c2b20d-dc77-48e8-941e-ca7532f77bb9"
        string_val: "ff2bb35f-8cf7-45b7-8e86-6f6c4d720bf9"
        string_val: "6e1ea0f7-a5f4-48d5-8d9b-bb614c85a7bb"
        string_val: "589ae468-0242-409e-9231-a9de9944896b"
        string_val: "589ae468-0242-409e-9231-a9de9944896b"
        string_val: "31aa2d9f-b3e7-499f-b9ba-f2c93b83c880"
        string_val: "31aa2d9f-b3e7-499f-b9ba-f2c93b83c880"
        string_val: "0c7a6a7e-9e35-4692-ad6b-b05b20357e07"
        string_val: "0c7a6a7e-9e35-4692-ad6b-b05b20357e07"
        string_val: "03ef219d-a797-4831-af03-ccd852cfa42a"
        string_val: "03ef219d-a797-4831-af03-ccd852cfa42a"
        string_val: "1959e6ee-9961-4ce4-b912-b1cf695b76d0"
        string_val: "1959e6ee-9961-4ce4-b912-b1cf695b76d0"
      }
    }
  }
}
node {
  name: "tensors/component_26"
  op: "Const"
  device: "/device:CPU:0"
  attr {
    key: "_output_shapes"
    value {
      list {
        shape {
          dim {
            size: 75
          }
        }
      }
    }
  }
  attr {
    key: "dtype"
    value {
      type: DT_STRING
    }
  }
  attr {
    key: "value"
    value {
      tensor {
        dtype: DT_STRING
        tensor_shape {
          dim {
            size: 75
          }
        }
        string_val: "4e32a279-679f-4a1e-85f8-c62b267ba526"
        string_val: "4e32a279-679f-4a1e-85f8-c62b267ba526"
        string_val: "3b88ece8-1796-4f49-80d1-9a4d44cd78c1"
        string_val: "3b88ece8-1796-4f49-80d1-9a4d44cd78c1"
        string_val: "a2551eb1-eafc-4451-a35d-ab6a73d12bd2"
        string_val: "a2551eb1-eafc-4451-a35d-ab6a73d12bd2"
        string_val: "69442a9b-007b-4cb1-af4c-37d937f293a2"
        string_val: "420c3a13-2852-4b68-8885-c766ac240613"
        string_val: "a077c389-bccb-4443-ba7d-03c8ea7bb2b4"
        string_val: "420c3a13-2852-4b68-8885-c766ac240613"
        string_val: "652202f3-10c3-418d-9b9f-015587b62da4"
        string_val: "322776d9-60cc-4036-8720-bcee021a5d0f"
        string_val: "5b2b8684-44ee-4d48-8324-0503fd70b669"
        string_val: "322776d9-60cc-4036-8720-bcee021a5d0f"
        string_val: "5b2b8684-44ee-4d48-8324-0503fd70b669"
        string_val: "35b1a00a-caea-4759-a614-87e42ed6d868"
        string_val: "35b1a00a-caea-4759-a614-87e42ed6d868"
        string_val: "97b5e858-657f-4a3a-bdd9-937bab225139"
        string_val: "3a5cd059-a5f1-477d-b0d6-ffa418c10be9"
        string_val: "a914c4b7-7663-41c8-8dc4-0cde883cad1e"
        string_val: "faea4599-b789-43a2-94ff-68e9c747cf0b"
        string_val: "13005ff5-065e-4715-a544-6880d800f873"
        string_val: "0e44523a-be15-45de-a571-29919a7b39c6"
        string_val: "13005ff5-065e-4715-a544-6880d800f873"
        string_val: "0e44523a-be15-45de-a571-29919a7b39c6"
        string_val: "f37a032b-f8fd-4ab1-811d-e4e204a4b889"
        string_val: "953343b8-e9e7-4c92-b479-8a3b85ed4922"
        string_val: "953343b8-e9e7-4c92-b479-8a3b85ed4922"
        string_val: "825d72bd-440e-4712-8d29-12e84e597984"
        string_val: "d95dac6f-2f27-49f2-b202-ace860c3ea5a"
        string_val: "3d99a74f-81e5-400b-b26e-aed111eab839"
        string_val: "3d99a74f-81e5-400b-b26e-aed111eab839"
        string_val: "fefaaaf4-6fbe-4606-9f94-421cefe808fe"
        string_val: "fefaaaf4-6fbe-4606-9f94-421cefe808fe"
        string_val: "d944fd43-46eb-4fb9-a0fb-211510fa1356"
        string_val: "d944fd43-46eb-4fb9-a0fb-211510fa1356"
        string_val: "08ca6371-9fa7-4c07-b5ad-d6edc2ed7550"
        string_val: "08ca6371-9fa7-4c07-b5ad-d6edc2ed7550"
        string_val: "0e44523a-be15-45de-a571-29919a7b39c6"
        string_val: "0e44523a-be15-45de-a571-29919a7b39c6"
        string_val: "850b63ed-5b62-4189-880f-2e5b95f496a1"
        string_val: "850b63ed-5b62-4189-880f-2e5b95f496a1"
        string_val: "d95dac6f-2f27-49f2-b202-ace860c3ea5a"
        string_val: "d95dac6f-2f27-49f2-b202-ace860c3ea5a"
        string_val: "3d99a74f-81e5-400b-b26e-aed111eab839"
        string_val: "3d99a74f-81e5-400b-b26e-aed111eab839"
        string_val: "d4a6749b-5813-4a6d-a0c3-d9473c778772"
        string_val: "953343b8-e9e7-4c92-b479-8a3b85ed4922"
        string_val: "a3f2e623-944f-48df-8e1e-f8664f42a42c"
        string_val: "9648aa3c-cbde-4a67-925c-1760de1f5b23"
        string_val: "13005ff5-065e-4715-a544-6880d800f873"
        string_val: "13005ff5-065e-4715-a544-6880d800f873"
        string_val: "9648aa3c-cbde-4a67-925c-1760de1f5b23"
        string_val: "a914c4b7-7663-41c8-8dc4-0cde883cad1e"
        string_val: "a914c4b7-7663-41c8-8dc4-0cde883cad1e"
        string_val: "fefaaaf4-6fbe-4606-9f94-421cefe808fe"
        string_val: "3638f367-0ef0-4efc-8c31-a65ab1f3b7a9"
        string_val: "a2551eb1-eafc-4451-a35d-ab6a73d12bd2"
        string_val: "a2551eb1-eafc-4451-a35d-ab6a73d12bd2"
        string_val: "ab026022-5848-4266-9c9d-93ceb94f9174"
        string_val: "4e32a279-679f-4a1e-85f8-c62b267ba526"
        string_val: "4e32a279-679f-4a1e-85f8-c62b267ba526"
        string_val: "70406c53-5ee4-4c7c-8d75-38238241b582"
        string_val: "5cf58527-a516-48e0-bcb8-b23a535674ee"
        string_val: "0090c958-3edd-4651-9c6a-d3623506bd78"
        string_val: "5b2b8684-44ee-4d48-8324-0503fd70b669"
        string_val: "5b2b8684-44ee-4d48-8324-0503fd70b669"
        string_val: "bd55075d-28c7-4a7c-aaf7-daf15aea7e2e"
        string_val: "bd55075d-28c7-4a7c-aaf7-daf15aea7e2e"
        string_val: "322776d9-60cc-4036-8720-bcee021a5d0f"
        string_val: "322776d9-60cc-4036-8720-bcee021a5d0f"
        string_val: "420c3a13-2852-4b68-8885-c766ac240613"
        string_val: "420c3a13-2852-4b68-8885-c766ac240613"
        string_val: "e0a157b1-e798-4f6c-8950-6ebcb1d6ea16"
        string_val: "e0a157b1-e798-4f6c-8950-6ebcb1d6ea16"
      }
    }
  }
}
node {
  name: "tensors/component_27"
  op: "Const"
  device: "/device:CPU:0"
  attr {
    key: "_output_shapes"
    value {
      list {
        shape {
          dim {
            size: 75
          }
        }
      }
    }
  }
  attr {
    key: "dtype"
    value {
      type: DT_STRING
    }
  }
  attr {
    key: "value"
    value {
      tensor {
        dtype: DT_STRING
        tensor_shape {
          dim {
            size: 75
          }
        }
        string_val: "0477dc76-a32d-4bbd-b19b-104caee316f4"
        string_val: "0477dc76-a32d-4bbd-b19b-104caee316f4"
        string_val: "1f62c0e4-8028-4d85-9481-c54755b93aa1"
        string_val: "1f62c0e4-8028-4d85-9481-c54755b93aa1"
        string_val: "c2dacb13-cf9d-4aec-ac0c-de5c31d33b90"
        string_val: "c2dacb13-cf9d-4aec-ac0c-de5c31d33b90"
        string_val: "61ab0563-fc4a-453c-8b22-7195154b100b"
        string_val: "9c773594-ec07-4f96-82e6-2ed4096f1cea"
        string_val: "95318d9a-57fd-4edd-a279-d7a0f53b5b57"
        string_val: "9c773594-ec07-4f96-82e6-2ed4096f1cea"
        string_val: "490dfa30-a9f5-4377-8e05-b64ddac3349c"
        string_val: "fe628559-cdb7-4da4-b785-c85f16676395"
        string_val: "e6b321d3-6ea4-400a-9a30-b336d395aa17"
        string_val: "fe628559-cdb7-4da4-b785-c85f16676395"
        string_val: "e6b321d3-6ea4-400a-9a30-b336d395aa17"
        string_val: "5e0f30e0-35a2-44bb-8972-b457417b3e1d"
        string_val: "5e0f30e0-35a2-44bb-8972-b457417b3e1d"
        string_val: "9a83b44d-88cb-4676-8522-e7a99d8f4beb"
        string_val: "22aca401-07da-46bf-b717-bb6664ebeb96"
        string_val: "c6888416-b6a1-4200-8d9c-08356fecbcc6"
        string_val: "b92bc987-68bc-4075-b713-dd7f8baa87ed"
        string_val: "f43f2c7a-18dc-468b-babe-ecb98f08809d"
        string_val: "b93cce25-a43d-4d9d-af4e-589183dcebaf"
        string_val: "f43f2c7a-18dc-468b-babe-ecb98f08809d"
        string_val: "b93cce25-a43d-4d9d-af4e-589183dcebaf"
        string_val: "42b8e1d6-643a-47ff-8c9d-9d4e484fdd03"
        string_val: "516a4569-7402-4433-bac8-4edf78d76f08"
        string_val: "516a4569-7402-4433-bac8-4edf78d76f08"
        string_val: "e0a157b1-e798-4f6c-8950-6ebcb1d6ea16"
        string_val: "918c4efb-d5a2-4f0f-9d98-87deb579da2f"
        string_val: "4d074cdc-19a0-43cb-9e56-ab39aa56a51a"
        string_val: "4d074cdc-19a0-43cb-9e56-ab39aa56a51a"
        string_val: "3d64b21e-79a3-4b44-bbb3-7b5c7a5ca77c"
        string_val: "3d64b21e-79a3-4b44-bbb3-7b5c7a5ca77c"
        string_val: "9648aa3c-cbde-4a67-925c-1760de1f5b23"
        string_val: "9648aa3c-cbde-4a67-925c-1760de1f5b23"
        string_val: "08ab54a8-a2ef-4740-9a41-43f3b45bc1d3"
        string_val: "08ab54a8-a2ef-4740-9a41-43f3b45bc1d3"
        string_val: "38a54c3f-55bf-4a70-87bf-4b0d9dade257"
        string_val: "38a54c3f-55bf-4a70-87bf-4b0d9dade257"
        string_val: "8cefb673-e564-4faa-ac0a-df5103880124"
        string_val: "8cefb673-e564-4faa-ac0a-df5103880124"
        string_val: "92aedfde-8e12-4f84-85bb-7dd377b3b97c"
        string_val: "92aedfde-8e12-4f84-85bb-7dd377b3b97c"
        string_val: "4d074cdc-19a0-43cb-9e56-ab39aa56a51a"
        string_val: "4d074cdc-19a0-43cb-9e56-ab39aa56a51a"
        string_val: "aa9cd7e9-4a98-4cd6-b61e-4d14bb660ac8"
        string_val: "67f148e4-c663-40cf-8c14-89781a7987a0"
        string_val: "4b0295aa-e83c-484b-91ef-08b246cef7fc"
        string_val: "d944fd43-46eb-4fb9-a0fb-211510fa1356"
        string_val: "d335ebc7-da02-44c7-b3e9-89e65d2246c0"
        string_val: "d335ebc7-da02-44c7-b3e9-89e65d2246c0"
        string_val: "d944fd43-46eb-4fb9-a0fb-211510fa1356"
        string_val: "9014ff9f-c47c-49e0-9408-85e25f2d0ce9"
        string_val: "9014ff9f-c47c-49e0-9408-85e25f2d0ce9"
        string_val: "3b274300-5bb3-41ce-a7f2-612072d88905"
        string_val: "3a5cd059-a5f1-477d-b0d6-ffa418c10be9"
        string_val: "c2dacb13-cf9d-4aec-ac0c-de5c31d33b90"
        string_val: "c2dacb13-cf9d-4aec-ac0c-de5c31d33b90"
        string_val: "f3bfbec0-14dc-4330-803f-58179be96c44"
        string_val: "5af4483b-28dd-4109-88e8-bd364cf2ca81"
        string_val: "5af4483b-28dd-4109-88e8-bd364cf2ca81"
        string_val: "d747a9be-0c94-4d90-9e9d-2319a30e37b0"
        string_val: "43750c11-945a-4c28-9761-29d6074300da"
        string_val: "f49c428c-62e1-4bf2-9875-7ed6ba6ec8b6"
        string_val: "371a24a9-990a-4cec-9ea3-f914ec3b3999"
        string_val: "371a24a9-990a-4cec-9ea3-f914ec3b3999"
        string_val: "1f62c0e4-8028-4d85-9481-c54755b93aa1"
        string_val: "1f62c0e4-8028-4d85-9481-c54755b93aa1"
        string_val: "d0de10e1-c8ef-4c61-b61d-23a3eb1e04b2"
        string_val: "d0de10e1-c8ef-4c61-b61d-23a3eb1e04b2"
        string_val: "8fec954f-64ee-4687-a175-84cd1d2f1487"
        string_val: "8fec954f-64ee-4687-a175-84cd1d2f1487"
        string_val: "23b52f5e-f26f-46fd-a0dd-5db8d40ead50"
        string_val: "23b52f5e-f26f-46fd-a0dd-5db8d40ead50"
      }
    }
  }
}
node {
  name: "tensors/component_28"
  op: "Const"
  device: "/device:CPU:0"
  attr {
    key: "_output_shapes"
    value {
      list {
        shape {
          dim {
            size: 75
          }
        }
      }
    }
  }
  attr {
    key: "dtype"
    value {
      type: DT_STRING
    }
  }
  attr {
    key: "value"
    value {
      tensor {
        dtype: DT_STRING
        tensor_shape {
          dim {
            size: 75
          }
        }
        string_val: "9abf8b0c-a741-48d2-88aa-cea18fc4b823"
        string_val: "9abf8b0c-a741-48d2-88aa-cea18fc4b823"
        string_val: "fcacb55f-7ab6-4990-a7e0-34eaa28e1fab"
        string_val: "fcacb55f-7ab6-4990-a7e0-34eaa28e1fab"
        string_val: "e46b8a92-16be-4831-bd41-1e279051d674"
        string_val: "e46b8a92-16be-4831-bd41-1e279051d674"
        string_val: "161b9e1d-eb0b-4ab7-a296-71d09164124f"
        string_val: "373dd18f-cb58-4f93-941c-4c7a1d3aae66"
        string_val: "ff2bb35f-8cf7-45b7-8e86-6f6c4d720bf9"
        string_val: "373dd18f-cb58-4f93-941c-4c7a1d3aae66"
        string_val: "0fdf052f-abf0-4b3c-b326-e6b7cb43637a"
        string_val: "dafb1357-640b-4992-a412-778ddaf871f8"
        string_val: "7f732a4d-f6a7-469f-96d5-fc0d8e8a7265"
        string_val: "dafb1357-640b-4992-a412-778ddaf871f8"
        string_val: "7f732a4d-f6a7-469f-96d5-fc0d8e8a7265"
        string_val: "28113566-dc5c-4a04-ae77-70bf0f353733"
        string_val: "28113566-dc5c-4a04-ae77-70bf0f353733"
        string_val: "d50c1de2-8acd-431b-a6c1-141deeb51063"
        string_val: "4ae5b3ba-996e-4cfd-bd3e-11918aab7df9"
        string_val: "6c11cdfc-f152-4974-ac02-b8e5d10a6b36"
        string_val: "ec548a04-35ab-4d12-a9d5-8c2fab3e562b"
        string_val: "7af06a48-cae7-439a-aba1-18b9c25efce5"
        string_val: "c4d29ad8-69cd-4ccb-8a26-a77a4d7ace83"
        string_val: "7af06a48-cae7-439a-aba1-18b9c25efce5"
        string_val: "c4d29ad8-69cd-4ccb-8a26-a77a4d7ace83"
        string_val: "ad0e8e55-3d46-4fed-94f1-6e1595403957"
        string_val: "67f148e4-c663-40cf-8c14-89781a7987a0"
        string_val: "67f148e4-c663-40cf-8c14-89781a7987a0"
        string_val: "1959e6ee-9961-4ce4-b912-b1cf695b76d0"
        string_val: "a268c323-5776-48c9-be2e-73cb6afa38de"
        string_val: "d5f1e9a6-ef22-416d-a14b-0e8c57cf029a"
        string_val: "d5f1e9a6-ef22-416d-a14b-0e8c57cf029a"
        string_val: "97f72154-4ea0-450d-8876-782bf84b5526"
        string_val: "97f72154-4ea0-450d-8876-782bf84b5526"
        string_val: "2ec3d74d-336c-4fdf-ad5d-e2feaccce79c"
        string_val: "2ec3d74d-336c-4fdf-ad5d-e2feaccce79c"
        string_val: "850b63ed-5b62-4189-880f-2e5b95f496a1"
        string_val: "850b63ed-5b62-4189-880f-2e5b95f496a1"
        string_val: "c4d29ad8-69cd-4ccb-8a26-a77a4d7ace83"
        string_val: "c4d29ad8-69cd-4ccb-8a26-a77a4d7ace83"
        string_val: "51054b71-f1a9-4397-ba0c-295a1287c32a"
        string_val: "51054b71-f1a9-4397-ba0c-295a1287c32a"
        string_val: "15c321e8-c85c-4392-a8d0-d986cae7ef6e"
        string_val: "15c321e8-c85c-4392-a8d0-d986cae7ef6e"
        string_val: "c6afe2a0-a39b-4af2-8fff-f9fd29bc6cf5"
        string_val: "c6afe2a0-a39b-4af2-8fff-f9fd29bc6cf5"
        string_val: "1cda45ba-8d37-4c6e-aaf6-0bc8be696adc"
        string_val: "dd527eb6-627a-45c9-ae98-61377e6b1b2f"
        string_val: "93f3572c-feee-4363-98f9-0bd651fc91bd"
        string_val: "2ec3d74d-336c-4fdf-ad5d-e2feaccce79c"
        string_val: "7af06a48-cae7-439a-aba1-18b9c25efce5"
        string_val: "7af06a48-cae7-439a-aba1-18b9c25efce5"
        string_val: "2ec3d74d-336c-4fdf-ad5d-e2feaccce79c"
        string_val: "7756b624-b9f1-471f-8c64-812326c467d8"
        string_val: "7756b624-b9f1-471f-8c64-812326c467d8"
        string_val: "97f72154-4ea0-450d-8876-782bf84b5526"
        string_val: "2ea4697d-efe2-42d3-9286-8577f989baae"
        string_val: "6fad7ce3-d90c-43ff-ad06-2a692adc53d3"
        string_val: "6fad7ce3-d90c-43ff-ad06-2a692adc53d3"
        string_val: "36ed6876-d209-4db9-a9a9-ca685fb05855"
        string_val: "fbc5f164-e12a-495e-aff0-1bba1d27abfb"
        string_val: "fbc5f164-e12a-495e-aff0-1bba1d27abfb"
        string_val: "f2db69fb-0c60-42c6-b65c-24545246eb42"
        string_val: "a7967765-365d-4094-8468-fbf1de74efa8"
        string_val: "69442a9b-007b-4cb1-af4c-37d937f293a2"
        string_val: "bbca9d04-dfbe-4148-90c6-36de2fe51259"
        string_val: "bbca9d04-dfbe-4148-90c6-36de2fe51259"
        string_val: "3b88ece8-1796-4f49-80d1-9a4d44cd78c1"
        string_val: "3b88ece8-1796-4f49-80d1-9a4d44cd78c1"
        string_val: "7f979b13-7c1a-4e4d-acd3-f43470279389"
        string_val: "7f979b13-7c1a-4e4d-acd3-f43470279389"
        string_val: "373dd18f-cb58-4f93-941c-4c7a1d3aae66"
        string_val: "373dd18f-cb58-4f93-941c-4c7a1d3aae66"
        string_val: "1f8168fa-94a7-4ad7-a8ff-fc84d99fc877"
        string_val: "1f8168fa-94a7-4ad7-a8ff-fc84d99fc877"
      }
    }
  }
}
node {
  name: "tensors/component_29"
  op: "Const"
  device: "/device:CPU:0"
  attr {
    key: "_output_shapes"
    value {
      list {
        shape {
          dim {
            size: 75
          }
        }
      }
    }
  }
  attr {
    key: "dtype"
    value {
      type: DT_STRING
    }
  }
  attr {
    key: "value"
    value {
      tensor {
        dtype: DT_STRING
        tensor_shape {
          dim {
            size: 75
          }
        }
        string_val: "5af4483b-28dd-4109-88e8-bd364cf2ca81"
        string_val: "5af4483b-28dd-4109-88e8-bd364cf2ca81"
        string_val: "94e86fbf-0f28-4a59-b330-5f2ecb4201a6"
        string_val: "94e86fbf-0f28-4a59-b330-5f2ecb4201a6"
        string_val: "6fad7ce3-d90c-43ff-ad06-2a692adc53d3"
        string_val: "6fad7ce3-d90c-43ff-ad06-2a692adc53d3"
        string_val: "3209800a-470b-430c-8f9a-82f6f4b391ca"
        string_val: "a5441dc5-ab6a-4a5b-aa06-d13b658e97e4"
        string_val: "5cf58527-a516-48e0-bcb8-b23a535674ee"
        string_val: "a5441dc5-ab6a-4a5b-aa06-d13b658e97e4"
        string_val: "b6c2b20d-dc77-48e8-941e-ca7532f77bb9"
…
  name: "report_uninitialized_variables_1/IsVariableInitialized_2"
  op: "IsVariableInitialized"
  input: "dnn/hiddenlayer_0/bias/part_0"
  attr {
    key: "_class"
    value {
      list {
        s: "loc:@dnn/hiddenlayer_0/bias/part_0"
      }
    }
  }
  attr {
    key: "_output_shapes"
    value {
      list {
        shape {
        }
      }
    }
  }
  attr {
    key: "dtype"
    value {
      type: DT_FLOAT
    }
  }
}
node {
  name: "report_uninitialized_variables_1/IsVariableInitialized_3"
  op: "IsVariableInitialized"
  input: "dnn/hiddenlayer_1/kernel/part_0"
  attr {
    key: "_class"
    value {
      list {
        s: "loc:@dnn/hiddenlayer_1/kernel/part_0"
      }
    }
  }
  attr {
    key: "_output_shapes"
    value {
      list {
        shape {
        }
      }
    }
  }
  attr {
    key: "dtype"
    value {
      type: DT_FLOAT
    }
  }
}
node {
  name: "report_uninitialized_variables_1/IsVariableInitialized_4"
  op: "IsVariableInitialized"
  input: "dnn/hiddenlayer_1/bias/part_0"
  attr {
    key: "_class"
    value {
      list {
        s: "loc:@dnn/hiddenlayer_1/bias/part_0"
      }
    }
  }
  attr {
    key: "_output_shapes"
    value {
      list {
        shape {
        }
      }
    }
  }
  attr {
    key: "dtype"
    value {
      type: DT_FLOAT
    }
  }
}
node {
  name: "report_uninitialized_variables_1/IsVariableInitialized_5"
  op: "IsVariableInitialized"
  input: "dnn/logits/kernel/part_0"
  attr {
    key: "_class"
    value {
      list {
        s: "loc:@dnn/logits/kernel/part_0"
      }
    }
  }
  attr {
    key: "_output_shapes"
    value {
      list {
        shape {
        }
      }
    }
  }
  attr {
    key: "dtype"
    value {
      type: DT_FLOAT
    }
  }
}
node {
  name: "report_uninitialized_variables_1/IsVariableInitialized_6"
  op: "IsVariableInitialized"
  input: "dnn/logits/bias/part_0"
  attr {
    key: "_class"
    value {
      list {
        s: "loc:@dnn/logits/bias/part_0"
      }
    }
  }
  attr {
    key: "_output_shapes"
    value {
      list {
        shape {
        }
      }
    }
  }
  attr {
    key: "dtype"
    value {
      type: DT_FLOAT
    }
  }
}
node {
  name: "report_uninitialized_variables_1/IsVariableInitialized_7"
  op: "IsVariableInitialized"
  input: "dnn/dnn/hiddenlayer_0/kernel/part_0/Adagrad"
  attr {
    key: "_class"
    value {
      list {
        s: "loc:@dnn/hiddenlayer_0/kernel/part_0"
      }
    }
  }
  attr {
    key: "_output_shapes"
    value {
      list {
        shape {
        }
      }
    }
  }
  attr {
    key: "dtype"
    value {
      type: DT_FLOAT
    }
  }
}
node {
  name: "report_uninitialized_variables_1/IsVariableInitialized_8"
  op: "IsVariableInitialized"
  input: "dnn/dnn/hiddenlayer_0/bias/part_0/Adagrad"
  attr {
    key: "_class"
    value {
      list {
        s: "loc:@dnn/hiddenlayer_0/bias/part_0"
      }
    }
  }
  attr {
    key: "_output_shapes"
    value {
      list {
        shape {
        }
      }
    }
  }
  attr {
    key: "dtype"
    value {
      type: DT_FLOAT
    }
  }
}
node {
  name: "report_uninitialized_variables_1/IsVariableInitialized_9"
  op: "IsVariableInitialized"
  input: "dnn/dnn/hiddenlayer_1/kernel/part_0/Adagrad"
  attr {
    key: "_class"
    value {
      list {
        s: "loc:@dnn/hiddenlayer_1/kernel/part_0"
      }
    }
  }
  attr {
    key: "_output_shapes"
    value {
      list {
        shape {
        }
      }
    }
  }
  attr {
    key: "dtype"
    value {
      type: DT_FLOAT
    }
  }
}
node {
  name: "report_uninitialized_variables_1/IsVariableInitialized_10"
  op: "IsVariableInitialized"
  input: "dnn/dnn/hiddenlayer_1/bias/part_0/Adagrad"
  attr {
    key: "_class"
    value {
      list {
        s: "loc:@dnn/hiddenlayer_1/bias/part_0"
      }
    }
  }
  attr {
    key: "_output_shapes"
    value {
      list {
        shape {
        }
      }
    }
  }
  attr {
    key: "dtype"
    value {
      type: DT_FLOAT
    }
  }
}
node {
  name: "report_uninitialized_variables_1/IsVariableInitialized_11"
  op: "IsVariableInitialized"
  input: "dnn/dnn/logits/kernel/part_0/Adagrad"
  attr {
    key: "_class"
    value {
      list {
        s: "loc:@dnn/logits/kernel/part_0"
      }
    }
  }
  attr {
    key: "_output_shapes"
    value {
      list {
        shape {
        }
      }
    }
  }
  attr {
    key: "dtype"
    value {
      type: DT_FLOAT
    }
  }
}
node {
  name: "report_uninitialized_variables_1/IsVariableInitialized_12"
  op: "IsVariableInitialized"
  input: "dnn/dnn/logits/bias/part_0/Adagrad"
  attr {
    key: "_class"
    value {
      list {
        s: "loc:@dnn/logits/bias/part_0"
      }
    }
  }
  attr {
    key: "_output_shapes"
    value {
      list {
        shape {
        }
      }
    }
  }
  attr {
    key: "dtype"
    value {
      type: DT_FLOAT
    }
  }
}
node {
  name: "report_uninitialized_variables_1/stack"
  op: "Pack"
  input: "report_uninitialized_variables_1/IsVariableInitialized"
  input: "report_uninitialized_variables_1/IsVariableInitialized_1"
  input: "report_uninitialized_variables_1/IsVariableInitialized_2"
  input: "report_uninitialized_variables_1/IsVariableInitialized_3"
  input: "report_uninitialized_variables_1/IsVariableInitialized_4"
  input: "report_uninitialized_variables_1/IsVariableInitialized_5"
  input: "report_uninitialized_variables_1/IsVariableInitialized_6"
  input: "report_uninitialized_variables_1/IsVariableInitialized_7"
  input: "report_uninitialized_variables_1/IsVariableInitialized_8"
  input: "report_uninitialized_variables_1/IsVariableInitialized_9"
  input: "report_uninitialized_variables_1/IsVariableInitialized_10"
  input: "report_uninitialized_variables_1/IsVariableInitialized_11"
  input: "report_uninitialized_variables_1/IsVariableInitialized_12"
  device: "/device:CPU:0"
  attr {
    key: "N"
    value {
      i: 13
    }
  }
  attr {
    key: "T"
    value {
      type: DT_BOOL
    }
  }
  attr {
    key: "_output_shapes"
    value {
      list {
        shape {
          dim {
            size: 13
          }
        }
      }
    }
  }
  attr {
    key: "axis"
    value {
      i: 0
    }
  }
}
node {
  name: "report_uninitialized_variables_1/LogicalNot"
  op: "LogicalNot"
  input: "report_uninitialized_variables_1/stack"
  device: "/device:CPU:0"
  attr {
    key: "_output_shapes"
    value {
      list {
        shape {
          dim {
            size: 13
          }
        }
      }
    }
  }
}
node {
  name: "report_uninitialized_variables_1/Const"
  op: "Const"
  device: "/device:CPU:0"
  attr {
    key: "_output_shapes"
    value {
      list {
        shape {
          dim {
            size: 13
          }
        }
      }
    }
  }
  attr {
    key: "dtype"
    value {
      type: DT_STRING
    }
  }
  attr {
    key: "value"
    value {
      tensor {
        dtype: DT_STRING
        tensor_shape {
          dim {
            size: 13
          }
        }
        string_val: "global_step"
        string_val: "dnn/hiddenlayer_0/kernel/part_0"
        string_val: "dnn/hiddenlayer_0/bias/part_0"
        string_val: "dnn/hiddenlayer_1/kernel/part_0"
        string_val: "dnn/hiddenlayer_1/bias/part_0"
        string_val: "dnn/logits/kernel/part_0"
        string_val: "dnn/logits/bias/part_0"
        string_val: "dnn/dnn/hiddenlayer_0/kernel/part_0/Adagrad"
        string_val: "dnn/dnn/hiddenlayer_0/bias/part_0/Adagrad"
        string_val: "dnn/dnn/hiddenlayer_1/kernel/part_0/Adagrad"
        string_val: "dnn/dnn/hiddenlayer_1/bias/part_0/Adagrad"
        string_val: "dnn/dnn/logits/kernel/part_0/Adagrad"
        string_val: "dnn/dnn/logits/bias/part_0/Adagrad"
      }
    }
  }
}
node {
  name: "report_uninitialized_variables_1/boolean_mask/Shape"
  op: "Const"
  device: "/device:CPU:0"
  attr {
    key: "_output_shapes"
    value {
      list {
        shape {
          dim {
            size: 1
          }
        }
      }
    }
  }
  attr {
    key: "dtype"
    value {
      type: DT_INT32
    }
  }
  attr {
    key: "value"
    value {
      tensor {
        dtype: DT_INT32
        tensor_shape {
          dim {
            size: 1
          }
        }
        int_val: 13
      }
    }
  }
}
node {
  name: "report_uninitialized_variables_1/boolean_mask/strided_slice/stack"
  op: "Const"
  device: "/device:CPU:0"
  attr {
    key: "_output_shapes"
    value {
      list {
        shape {
          dim {
            size: 1
          }
        }
      }
    }
  }
  attr {
    key: "dtype"
    value {
      type: DT_INT32
    }
  }
  attr {
    key: "value"
    value {
      tensor {
        dtype: DT_INT32
        tensor_shape {
          dim {
            size: 1
          }
        }
        int_val: 0
      }
    }
  }
}
node {
  name: "report_uninitialized_variables_1/boolean_mask/strided_slice/stack_1"
  op: "Const"
  device: "/device:CPU:0"
  attr {
    key: "_output_shapes"
    value {
      list {
        shape {
          dim {
            size: 1
          }
        }
      }
    }
  }
  attr {
    key: "dtype"
    value {
      type: DT_INT32
    }
  }
  attr {
    key: "value"
    value {
      tensor {
        dtype: DT_INT32
        tensor_shape {
          dim {
            size: 1
          }
        }
        int_val: 1
      }
    }
  }
}
node {
  name: "report_uninitialized_variables_1/boolean_mask/strided_slice/stack_2"
  op: "Const"
  device: "/device:CPU:0"
  attr {
    key: "_output_shapes"
    value {
      list {
        shape {
          dim {
            size: 1
          }
        }
      }
    }
  }
  attr {
    key: "dtype"
    value {
      type: DT_INT32
    }
  }
  attr {
    key: "value"
    value {
      tensor {
        dtype: DT_INT32
        tensor_shape {
          dim {
            size: 1
          }
        }
        int_val: 1
      }
    }
  }
}
node {
  name: "report_uninitialized_variables_1/boolean_mask/strided_slice"
  op: "StridedSlice"
  input: "report_uninitialized_variables_1/boolean_mask/Shape"
  input: "report_uninitialized_variables_1/boolean_mask/strided_slice/stack"
  input: "report_uninitialized_variables_1/boolean_mask/strided_slice/stack_1"
  input: "report_uninitialized_variables_1/boolean_mask/strided_slice/stack_2"
  device: "/device:CPU:0"
  attr {
    key: "Index"
    value {
      type: DT_INT32
    }
  }
  attr {
    key: "T"
    value {
      type: DT_INT32
    }
  }
  attr {
    key: "_output_shapes"
    value {
      list {
        shape {
          dim {
            size: 1
          }
        }
      }
    }
  }
  attr {
    key: "begin_mask"
    value {
      i: 0
    }
  }
  attr {
    key: "ellipsis_mask"
    value {
      i: 0
    }
  }
  attr {
    key: "end_mask"
    value {
      i: 0
    }
  }
  attr {
    key: "new_axis_mask"
    value {
      i: 0
    }
  }
  attr {
    key: "shrink_axis_mask"
    value {
      i: 0
    }
  }
}
node {
  name: "report_uninitialized_variables_1/boolean_mask/Prod/reduction_indices"
  op: "Const"
  device: "/device:CPU:0"
  attr {
    key: "_output_shapes"
    value {
      list {
        shape {
          dim {
            size: 1
          }
        }
      }
    }
  }
  attr {
    key: "dtype"
    value {
      type: DT_INT32
    }
  }
  attr {
    key: "value"
    value {
      tensor {
        dtype: DT_INT32
        tensor_shape {
          dim {
            size: 1
          }
        }
        int_val: 0
      }
    }
  }
}
node {
  name: "report_uninitialized_variables_1/boolean_mask/Prod"
  op: "Prod"
  input: "report_uninitialized_variables_1/boolean_mask/strided_slice"
  input: "report_uninitialized_variables_1/boolean_mask/Prod/reduction_indices"
  device: "/device:CPU:0"
  attr {
    key: "T"
    value {
      type: DT_INT32
    }
  }
  attr {
    key: "Tidx"
    value {
      type: DT_INT32
    }
  }
  attr {
    key: "_output_shapes"
    value {
      list {
        shape {
        }
      }
    }
  }
  attr {
    key: "keep_dims"
    value {
      b: false
    }
  }
}
node {
  name: "report_uninitialized_variables_1/boolean_mask/Shape_1"
  op: "Const"
  device: "/device:CPU:0"
  attr {
    key: "_output_shapes"
    value {
      list {
        shape {
          dim {
            size: 1
          }
        }
      }
    }
  }
  attr {
    key: "dtype"
    value {
      type: DT_INT32
    }
  }
  attr {
    key: "value"
    value {
      tensor {
        dtype: DT_INT32
        tensor_shape {
          dim {
            size: 1
          }
        }
        int_val: 13
      }
    }
  }
}
node {
  name: "report_uninitialized_variables_1/boolean_mask/strided_slice_1/stack"
  op: "Const"
  device: "/device:CPU:0"
  attr {
    key: "_output_shapes"
    value {
      list {
        shape {
          dim {
            size: 1
          }
        }
      }
    }
  }
  attr {
    key: "dtype"
    value {
      type: DT_INT32
    }
  }
  attr {
    key: "value"
    value {
      tensor {
        dtype: DT_INT32
        tensor_shape {
          dim {
            size: 1
          }
        }
        int_val: 0
      }
    }
  }
}
node {
  name: "report_uninitialized_variables_1/boolean_mask/strided_slice_1/stack_1"
  op: "Const"
  device: "/device:CPU:0"
  attr {
    key: "_output_shapes"
    value {
      list {
        shape {
          dim {
            size: 1
          }
        }
      }
    }
  }
  attr {
    key: "dtype"
    value {
      type: DT_INT32
    }
  }
  attr {
    key: "value"
    value {
      tensor {
        dtype: DT_INT32
        tensor_shape {
          dim {
            size: 1
          }
        }
        int_val: 0
      }
    }
  }
}
node {
  name: "report_uninitialized_variables_1/boolean_mask/strided_slice_1/stack_2"
  op: "Const"
  device: "/device:CPU:0"
  attr {
    key: "_output_shapes"
    value {
      list {
        shape {
          dim {
            size: 1
          }
        }
      }
    }
  }
  attr {
    key: "dtype"
    value {
      type: DT_INT32
    }
  }
  attr {
    key: "value"
    value {
      tensor {
        dtype: DT_INT32
        tensor_shape {
          dim {
            size: 1
          }
        }
        int_val: 1
      }
    }
  }
}
node {
  name: "report_uninitialized_variables_1/boolean_mask/strided_slice_1"
  op: "StridedSlice"
  input: "report_uninitialized_variables_1/boolean_mask/Shape_1"
  input: "report_uninitialized_variables_1/boolean_mask/strided_slice_1/stack"
  input: "report_uninitialized_variables_1/boolean_mask/strided_slice_1/stack_1"
  input: "report_uninitialized_variables_1/boolean_mask/strided_slice_1/stack_2"
  device: "/device:CPU:0"
  attr {
    key: "Index"
    value {
      type: DT_INT32
    }
  }
  attr {
    key: "T"
    value {
      type: DT_INT32
    }
  }
  attr {
    key: "_output_shapes"
    value {
      list {
        shape {
          dim {
          }
        }
      }
    }
  }
  attr {
    key: "begin_mask"
    value {
      i: 1
    }
  }
  attr {
    key: "ellipsis_mask"
    value {
      i: 0
    }
  }
  attr {
    key: "end_mask"
    value {
      i: 0
    }
  }
  attr {
    key: "new_axis_mask"
    value {
      i: 0
    }
  }
  attr {
    key: "shrink_axis_mask"
    value {
      i: 0
    }
  }
}
node {
  name: "report_uninitialized_variables_1/boolean_mask/Shape_2"
  op: "Const"
  device: "/device:CPU:0"
  attr {
    key: "_output_shapes"
    value {
      list {
        shape {
          dim {
            size: 1
          }
        }
      }
    }
  }
  attr {
    key: "dtype"
    value {
      type: DT_INT32
    }
  }
  attr {
    key: "value"
    value {
      tensor {
        dtype: DT_INT32
        tensor_shape {
          dim {
            size: 1
          }
        }
        int_val: 13
      }
    }
  }
}
node {
  name: "report_uninitialized_variables_1/boolean_mask/strided_slice_2/stack"
  op: "Const"
  device: "/device:CPU:0"
  attr {
    key: "_output_shapes"
    value {
      list {
        shape {
          dim {
            size: 1
          }
        }
      }
    }
  }
  attr {
    key: "dtype"
    value {
      type: DT_INT32
    }
  }
  attr {
    key: "value"
    value {
      tensor {
        dtype: DT_INT32
        tensor_shape {
          dim {
            size: 1
          }
        }
        int_val: 1
      }
    }
  }
}
node {
  name: "report_uninitialized_variables_1/boolean_mask/strided_slice_2/stack_1"
  op: "Const"
  device: "/device:CPU:0"
  attr {
    key: "_output_shapes"
    value {
      list {
        shape {
          dim {
            size: 1
          }
        }
      }
    }
  }
  attr {
    key: "dtype"
    value {
      type: DT_INT32
    }
  }
  attr {
    key: "value"
    value {
      tensor {
        dtype: DT_INT32
        tensor_shape {
          dim {
            size: 1
          }
        }
        int_val: 0
      }
    }
  }
}
node {
  name: "report_uninitialized_variables_1/boolean_mask/strided_slice_2/stack_2"
  op: "Const"
  device: "/device:CPU:0"
  attr {
    key: "_output_shapes"
    value {
      list {
        shape {
          dim {
            size: 1
          }
        }
      }
    }
  }
  attr {
    key: "dtype"
    value {
      type: DT_INT32
    }
  }
  attr {
    key: "value"
    value {
      tensor {
        dtype: DT_INT32
        tensor_shape {
          dim {
            size: 1
          }
        }
        int_val: 1
      }
    }
  }
}
node {
  name: "report_uninitialized_variables_1/boolean_mask/strided_slice_2"
  op: "StridedSlice"
  input: "report_uninitialized_variables_1/boolean_mask/Shape_2"
  input: "report_uninitialized_variables_1/boolean_mask/strided_slice_2/stack"
  input: "report_uninitialized_variables_1/boolean_mask/strided_slice_2/stack_1"
  input: "report_uninitialized_variables_1/boolean_mask/strided_slice_2/stack_2"
  device: "/device:CPU:0"
  attr {
    key: "Index"
    value {
      type: DT_INT32
    }
  }
  attr {
    key: "T"
    value {
      type: DT_INT32
    }
  }
  attr {
    key: "_output_shapes"
    value {
      list {
        shape {
          dim {
          }
        }
      }
    }
  }
  attr {
    key: "begin_mask"
    value {
      i: 0
    }
  }
  attr {
    key: "ellipsis_mask"
    value {
      i: 0
    }
  }
  attr {
    key: "end_mask"
    value {
      i: 1
    }
  }
  attr {
    key: "new_axis_mask"
    value {
      i: 0
    }
  }
  attr {
    key: "shrink_axis_mask"
    value {
      i: 0
    }
  }
}
node {
  name: "report_uninitialized_variables_1/boolean_mask/concat/values_1"
  op: "Pack"
  input: "report_uninitialized_variables_1/boolean_mask/Prod"
  device: "/device:CPU:0"
  attr {
    key: "N"
    value {
      i: 1
    }
  }
  attr {
    key: "T"
    value {
      type: DT_INT32
    }
  }
  attr {
    key: "_output_shapes"
    value {
      list {
        shape {
          dim {
            size: 1
          }
        }
      }
    }
  }
  attr {
    key: "axis"
    value {
      i: 0
    }
  }
}
node {
  name: "report_uninitialized_variables_1/boolean_mask/concat/axis"
  op: "Const"
  device: "/device:CPU:0"
  attr {
    key: "_output_shapes"
    value {
      list {
        shape {
        }
      }
    }
  }
  attr {
    key: "dtype"
    value {
      type: DT_INT32
    }
  }
  attr {
    key: "value"
    value {
      tensor {
        dtype: DT_INT32
        tensor_shape {
        }
        int_val: 0
      }
    }
  }
}
node {
  name: "report_uninitialized_variables_1/boolean_mask/concat"
  op: "ConcatV2"
  input: "report_uninitialized_variables_1/boolean_mask/strided_slice_1"
  input: "report_uninitialized_variables_1/boolean_mask/concat/values_1"
  input: "report_uninitialized_variables_1/boolean_mask/strided_slice_2"
  input: "report_uninitialized_variables_1/boolean_mask/concat/axis"
  device: "/device:CPU:0"
  attr {
    key: "N"
    value {
      i: 3
    }
  }
  attr {
    key: "T"
    value {
      type: DT_INT32
    }
  }
  attr {
    key: "Tidx"
    value {
      type: DT_INT32
    }
  }
  attr {
    key: "_output_shapes"
    value {
      list {
        shape {
          dim {
            size: 1
          }
        }
      }
    }
  }
}
node {
  name: "report_uninitialized_variables_1/boolean_mask/Reshape"
  op: "Reshape"
  input: "report_uninitialized_variables_1/Const"
  input: "report_uninitialized_variables_1/boolean_mask/concat"
  device: "/device:CPU:0"
  attr {
    key: "T"
    value {
      type: DT_STRING
    }
  }
  attr {
    key: "Tshape"
    value {
      type: DT_INT32
    }
  }
  attr {
    key: "_output_shapes"
    value {
      list {
        shape {
          dim {
            size: 13
          }
        }
      }
    }
  }
}
node {
  name: "report_uninitialized_variables_1/boolean_mask/Reshape_1/shape"
  op: "Const"
  device: "/device:CPU:0"
  attr {
    key: "_output_shapes"
    value {
      list {
        shape {
          dim {
            size: 1
          }
        }
      }
    }
  }
  attr {
    key: "dtype"
    value {
      type: DT_INT32
    }
  }
  attr {
    key: "value"
    value {
      tensor {
        dtype: DT_INT32
        tensor_shape {
          dim {
            size: 1
          }
        }
        int_val: -1
      }
    }
  }
}
node {
  name: "report_uninitialized_variables_1/boolean_mask/Reshape_1"
  op: "Reshape"
  input: "report_uninitialized_variables_1/LogicalNot"
  input: "report_uninitialized_variables_1/boolean_mask/Reshape_1/shape"
  device: "/device:CPU:0"
  attr {
    key: "T"
    value {
      type: DT_BOOL
    }
  }
  attr {
    key: "Tshape"
    value {
      type: DT_INT32
    }
  }
  attr {
    key: "_output_shapes"
    value {
      list {
        shape {
          dim {
            size: 13
          }
        }
      }
    }
  }
}
node {
  name: "report_uninitialized_variables_1/boolean_mask/Where"
  op: "Where"
  input: "report_uninitialized_variables_1/boolean_mask/Reshape_1"
  device: "/device:CPU:0"
  attr {
    key: "T"
    value {
      type: DT_BOOL
    }
  }
  attr {
    key: "_output_shapes"
    value {
      list {
        shape {
          dim {
            size: -1
          }
          dim {
            size: 1
          }
        }
      }
    }
  }
}
node {
  name: "report_uninitialized_variables_1/boolean_mask/Squeeze"
  op: "Squeeze"
  input: "report_uninitialized_variables_1/boolean_mask/Where"
  device: "/device:CPU:0"
  attr {
    key: "T"
    value {
      type: DT_INT64
    }
  }
  attr {
    key: "_output_shapes"
    value {
      list {
        shape {
          dim {
            size: -1
          }
        }
      }
    }
  }
  attr {
    key: "squeeze_dims"
    value {
      list {
        i: 1
      }
    }
  }
}
node {
  name: "report_uninitialized_variables_1/boolean_mask/Gather"
  op: "Gather"
  input: "report_uninitialized_variables_1/boolean_mask/Reshape"
  input: "report_uninitialized_variables_1/boolean_mask/Squeeze"
  device: "/device:CPU:0"
  attr {
    key: "Tindices"
    value {
      type: DT_INT64
    }
  }
  attr {
    key: "Tparams"
    value {
      type: DT_STRING
    }
  }
  attr {
    key: "_output_shapes"
    value {
      list {
        shape {
          dim {
            size: -1
          }
        }
      }
    }
  }
  attr {
    key: "validate_indices"
    value {
      b: true
    }
  }
}
node {
  name: "init_2"
  op: "NoOp"
}
node {
  name: "init_all_tables"
  op: "NoOp"
  input: "^dnn/input_from_feature_columns/input_layer/awayPlayer1_X_awayPlayer10_X_awayPlayer11_X_awayPlayer2_X_awayPlayer3_X_awayPlayer4_X_awayPlayer5_X_awayPlayer6_X_awayPlayer7_X_awayPlayer8_X_awayPlayer9_indicator/awayPlayer1_lookup/hash_table/table_init"
  input: "^dnn/input_from_feature_columns/input_layer/awayPlayer1_X_awayPlayer10_X_awayPlayer11_X_awayPlayer2_X_awayPlayer3_X_awayPlayer4_X_awayPlayer5_X_awayPlayer6_X_awayPlayer7_X_awayPlayer8_X_awayPlayer9_indicator/awayPlayer2_lookup/hash_table/table_init"
  input: "^dnn/input_from_feature_columns/input_layer/awayPlayer1_X_awayPlayer10_X_awayPlayer11_X_awayPlayer2_X_awayPlayer3_X_awayPlayer4_X_awayPlayer5_X_awayPlayer6_X_awayPlayer7_X_awayPlayer8_X_awayPlayer9_indicator/awayPlayer3_lookup/hash_table/table_init"
  input: "^dnn/input_from_feature_columns/input_layer/awayPlayer1_X_awayPlayer10_X_awayPlayer11_X_awayPlayer2_X_awayPlayer3_X_awayPlayer4_X_awayPlayer5_X_awayPlayer6_X_awayPlayer7_X_awayPlayer8_X_awayPlayer9_indicator/awayPlayer4_lookup/hash_table/table_init"
  input: "^dnn/input_from_feature_columns/input_layer/awayPlayer1_X_awayPlayer10_X_awayPlayer11_X_awayPlayer2_X_awayPlayer3_X_awayPlayer4_X_awayPlayer5_X_awayPlayer6_X_awayPlayer7_X_awayPlayer8_X_awayPlayer9_indicator/awayPlayer5_lookup/hash_table/table_init"
  input: "^dnn/input_from_feature_columns/input_layer/awayPlayer1_X_awayPlayer10_X_awayPlayer11_X_awayPlayer2_X_awayPlayer3_X_awayPlayer4_X_awayPlayer5_X_awayPlayer6_X_awayPlayer7_X_awayPlayer8_X_awayPlayer9_indicator/awayPlayer6_lookup/hash_table/table_init"
  input: "^dnn/input_from_feature_columns/input_layer/awayPlayer1_X_awayPlayer10_X_awayPlayer11_X_awayPlayer2_X_awayPlayer3_X_awayPlayer4_X_awayPlayer5_X_awayPlayer6_X_awayPlayer7_X_awayPlayer8_X_awayPlayer9_indicator/awayPlayer7_lookup/hash_table/table_init"
  input: "^dnn/input_from_feature_columns/input_layer/awayPlayer1_X_awayPlayer10_X_awayPlayer11_X_awayPlayer2_X_awayPlayer3_X_awayPlayer4_X_awayPlayer5_X_awayPlayer6_X_awayPlayer7_X_awayPlayer8_X_awayPlayer9_indicator/awayPlayer8_lookup/hash_table/table_init"
  input: "^dnn/input_from_feature_columns/input_layer/awayPlayer1_X_awayPlayer10_X_awayPlayer11_X_awayPlayer2_X_awayPlayer3_X_awayPlayer4_X_awayPlayer5_X_awayPlayer6_X_awayPlayer7_X_awayPlayer8_X_awayPlayer9_indicator/awayPlayer9_lookup/hash_table/table_init"
  input: "^dnn/input_from_feature_columns/input_layer/awayPlayer1_X_awayPlayer10_X_awayPlayer11_X_awayPlayer2_X_awayPlayer3_X_awayPlayer4_X_awayPlayer5_X_awayPlayer6_X_awayPlayer7_X_awayPlayer8_X_awayPlayer9_indicator/awayPlayer10_lookup/hash_table/table_init"
  input: "^dnn/input_from_feature_columns/input_layer/awayPlayer1_X_awayPlayer10_X_awayPlayer11_X_awayPlayer2_X_awayPlayer3_X_awayPlayer4_X_awayPlayer5_X_awayPlayer6_X_awayPlayer7_X_awayPlayer8_X_awayPlayer9_indicator/awayPlayer11_lookup/hash_table/table_init"
  input: "^dnn/input_from_feature_columns/input_layer/awaySub1_X_awaySub2_X_awaySub3_indicator/awaySub1_lookup/hash_table/table_init"
  input: "^dnn/input_from_feature_columns/input_layer/awaySub1_X_awaySub2_X_awaySub3_indicator/awaySub2_lookup/hash_table/table_init"
  input: "^dnn/input_from_feature_columns/input_layer/awaySub1_X_awaySub2_X_awaySub3_indicator/awaySub3_lookup/hash_table/table_init"
  input: "^dnn/input_from_feature_columns/input_layer/away_indicator/away_lookup/hash_table/table_init"
  input: "^dnn/input_from_feature_columns/input_layer/homePlayer1_X_homePlayer10_X_homePlayer11_X_homePlayer2_X_homePlayer3_X_homePlayer4_X_homePlayer5_X_homePlayer6_X_homePlayer7_X_homePlayer8_X_homePlayer9_indicator/homePlayer1_lookup/hash_table/table_init"
  input: "^dnn/input_from_feature_columns/input_layer/homePlayer1_X_homePlayer10_X_homePlayer11_X_homePlayer2_X_homePlayer3_X_homePlayer4_X_homePlayer5_X_homePlayer6_X_homePlayer7_X_homePlayer8_X_homePlayer9_indicator/homePlayer2_lookup/hash_table/table_init"
  input: "^dnn/input_from_feature_columns/input_layer/homePlayer1_X_homePlayer10_X_homePlayer11_X_homePlayer2_X_homePlayer3_X_homePlayer4_X_homePlayer5_X_homePlayer6_X_homePlayer7_X_homePlayer8_X_homePlayer9_indicator/homePlayer3_lookup/hash_table/table_init"
  input: "^dnn/input_from_feature_columns/input_layer/homePlayer1_X_homePlayer10_X_homePlayer11_X_homePlayer2_X_homePlayer3_X_homePlayer4_X_homePlayer5_X_homePlayer6_X_homePlayer7_X_homePlayer8_X_homePlayer9_indicator/homePlayer4_lookup/hash_table/table_init"
  input: "^dnn/input_from_feature_columns/input_layer/homePlayer1_X_homePlayer10_X_homePlayer11_X_homePlayer2_X_homePlayer3_X_homePlayer4_X_homePlayer5_X_homePlayer6_X_homePlayer7_X_homePlayer8_X_homePlayer9_indicator/homePlayer5_lookup/hash_table/table_init"
  input: "^dnn/input_from_feature_columns/input_layer/homePlayer1_X_homePlayer10_X_homePlayer11_X_homePlayer2_X_homePlayer3_X_homePlayer4_X_homePlayer5_X_homePlayer6_X_homePlayer7_X_homePlayer8_X_homePlayer9_indicator/homePlayer6_lookup/hash_table/table_init"
  input: "^dnn/input_from_feature_columns/input_layer/homePlayer1_X_homePlayer10_X_homePlayer11_X_homePlayer2_X_homePlayer3_X_homePlayer4_X_homePlayer5_X_homePlayer6_X_homePlayer7_X_homePlayer8_X_homePlayer9_indicator/homePlayer7_lookup/hash_table/table_init"
  input: "^dnn/input_from_feature_columns/input_layer/homePlayer1_X_homePlayer10_X_homePlayer11_X_homePlayer2_X_homePlayer3_X_homePlayer4_X_homePlayer5_X_homePlayer6_X_homePlayer7_X_homePlayer8_X_homePlayer9_indicator/homePlayer8_lookup/hash_table/table_init"
  input: "^dnn/input_from_feature_columns/input_layer/homePlayer1_X_homePlayer10_X_homePlayer11_X_homePlayer2_X_homePlayer3_X_homePlayer4_X_homePlayer5_X_homePlayer6_X_homePlayer7_X_homePlayer8_X_homePlayer9_indicator/homePlayer9_lookup/hash_table/table_init"
  input: "^dnn/input_from_feature_columns/input_layer/homePlayer1_X_homePlayer10_X_homePlayer11_X_homePlayer2_X_homePlayer3_X_homePlayer4_X_homePlayer5_X_homePlayer6_X_homePlayer7_X_homePlayer8_X_homePlayer9_indicator/homePlayer10_lookup/hash_table/table_init"
  input: "^dnn/input_from_feature_columns/input_layer/homePlayer1_X_homePlayer10_X_homePlayer11_X_homePlayer2_X_homePlayer3_X_homePlayer4_X_homePlayer5_X_homePlayer6_X_homePlayer7_X_homePlayer8_X_homePlayer9_indicator/homePlayer11_lookup/hash_table/table_init"
  input: "^dnn/input_from_feature_columns/input_layer/homeSub1_X_homeSub2_X_homeSub3_indicator/homeSub1_lookup/hash_table/table_init"
  input: "^dnn/input_from_feature_columns/input_layer/homeSub1_X_homeSub2_X_homeSub3_indicator/homeSub2_lookup/hash_table/table_init"
  input: "^dnn/input_from_feature_columns/input_layer/homeSub1_X_homeSub2_X_homeSub3_indicator/homeSub3_lookup/hash_table/table_init"
  input: "^dnn/input_from_feature_columns/input_layer/home_indicator/home_lookup/hash_table/table_init"
}
node {
  name: "init_3"
  op: "NoOp"
}
node {
  name: "group_deps_1"
  op: "NoOp"
  input: "^init_2"
  input: "^init_all_tables"
  input: "^init_3"
}
node {
  name: "Merge/MergeSummary"
  op: "MergeSummary"
  input: "dnn/dnn/hiddenlayer_0/fraction_of_zero_values"
  input: "dnn/dnn/hiddenlayer_0/activation"
  input: "dnn/dnn/hiddenlayer_1/fraction_of_zero_values"
  input: "dnn/dnn/hiddenlayer_1/activation"
  input: "dnn/dnn/logits/fraction_of_zero_values"
  input: "dnn/dnn/logits/activation"
  input: "loss"
  input: "average_loss"
  attr {
    key: "N"
    value {
      i: 8
    }
  }
  attr {
    key: "_output_shapes"
    value {
      list {
        shape {
        }
      }
    }
  }
}
node {
  name: "save/Const"
  op: "Const"
  attr {
    key: "_output_shapes"
    value {
      list {
        shape {
        }
      }
    }
  }
  attr {
    key: "dtype"
    value {
      type: DT_STRING
    }
  }
  attr {
    key: "value"
    value {
      tensor {
        dtype: DT_STRING
        tensor_shape {
        }
        string_val: "model"
      }
    }
  }
}
node {
  name: "save/StringJoin/inputs_1"
  op: "Const"
  attr {
    key: "_output_shapes"
    value {
      list {
        shape {
        }
      }
    }
  }
  attr {
    key: "dtype"
    value {
      type: DT_STRING
    }
  }
  attr {
    key: "value"
    value {
      tensor {
        dtype: DT_STRING
        tensor_shape {
        }
        string_val: "_temp_49298e40ff46486484d94a1d7044ce80/part"
      }
    }
  }
}
node {
  name: "save/StringJoin"
  op: "StringJoin"
  input: "save/Const"
  input: "save/StringJoin/inputs_1"
  attr {
    key: "N"
    value {
      i: 2
    }
  }
  attr {
    key: "_output_shapes"
    value {
      list {
        shape {
        }
      }
    }
  }
  attr {
    key: "separator"
    value {
      s: ""
    }
  }
}
node {
  name: "save/num_shards"
  op: "Const"
  attr {
    key: "_output_shapes"
    value {
      list {
        shape {
        }
      }
    }
  }
  attr {
    key: "dtype"
    value {
      type: DT_INT32
    }
  }
  attr {
    key: "value"
    value {
      tensor {
        dtype: DT_INT32
        tensor_shape {
        }
        int_val: 1
      }
    }
  }
}
node {
  name: "save/ShardedFilename/shard"
  op: "Const"
  device: "/device:CPU:0"
  attr {
    key: "_output_shapes"
    value {
      list {
        shape {
        }
      }
    }
  }
  attr {
    key: "dtype"
    value {
      type: DT_INT32
    }
  }
  attr {
    key: "value"
    value {
      tensor {
        dtype: DT_INT32
        tensor_shape {
        }
        int_val: 0
      }
    }
  }
}
node {
  name: "save/ShardedFilename"
  op: "ShardedFilename"
  input: "save/StringJoin"
  input: "save/ShardedFilename/shard"
  input: "save/num_shards"
  device: "/device:CPU:0"
  attr {
    key: "_output_shapes"
    value {
      list {
        shape {
        }
      }
    }
  }
}
node {
  name: "save/SaveV2/tensor_names"
  op: "Const"
  device: "/device:CPU:0"
  attr {
    key: "_output_shapes"
    value {
      list {
        shape {
          dim {
            size: 13
          }
        }
      }
    }
  }
  attr {
    key: "dtype"
    value {
      type: DT_STRING
    }
  }
  attr {
    key: "value"
    value {
      tensor {
        dtype: DT_STRING
        tensor_shape {
          dim {
            size: 13
          }
        }
        string_val: "dnn/hiddenlayer_0/bias"
        string_val: "dnn/hiddenlayer_0/bias/t_0/Adagrad"
        string_val: "dnn/hiddenlayer_0/kernel"
        string_val: "dnn/hiddenlayer_0/kernel/t_0/Adagrad"
        string_val: "dnn/hiddenlayer_1/bias"
        string_val: "dnn/hiddenlayer_1/bias/t_0/Adagrad"
        string_val: "dnn/hiddenlayer_1/kernel"
        string_val: "dnn/hiddenlayer_1/kernel/t_0/Adagrad"
        string_val: "dnn/logits/bias"
        string_val: "dnn/logits/bias/t_0/Adagrad"
        string_val: "dnn/logits/kernel"
        string_val: "dnn/logits/kernel/t_0/Adagrad"
        string_val: "global_step"
      }
    }
  }
}
node {
  name: "save/SaveV2/shape_and_slices"
  op: "Const"
  device: "/device:CPU:0"
  attr {
    key: "_output_shapes"
    value {
      list {
        shape {
          dim {
            size: 13
          }
        }
      }
    }
  }
  attr {
    key: "dtype"
    value {
      type: DT_STRING
    }
  }
  attr {
    key: "value"
    value {
      tensor {
        dtype: DT_STRING
        tensor_shape {
          dim {
            size: 13
          }
        }
        string_val: "10 0,10"
        string_val: "10 0,10"
        string_val: "20924 10 0,20924:0,10"
        string_val: "20924 10 0,20924:0,10"
        string_val: "10 0,10"
        string_val: "10 0,10"
        string_val: "10 10 0,10:0,10"
        string_val: "10 10 0,10:0,10"
        string_val: "3 0,3"
        string_val: "3 0,3"
        string_val: "10 3 0,10:0,3"
        string_val: "10 3 0,10:0,3"
        string_val: ""
      }
    }
  }
}
node {
  name: "save/SaveV2"
  op: "SaveV2"
  input: "save/ShardedFilename"
  input: "save/SaveV2/tensor_names"
  input: "save/SaveV2/shape_and_slices"
  input: "dnn/hiddenlayer_0/bias/part_0/read"
  input: "dnn/dnn/hiddenlayer_0/bias/part_0/Adagrad/read"
  input: "dnn/hiddenlayer_0/kernel/part_0/read"
  input: "dnn/dnn/hiddenlayer_0/kernel/part_0/Adagrad/read"
  input: "dnn/hiddenlayer_1/bias/part_0/read"
  input: "dnn/dnn/hiddenlayer_1/bias/part_0/Adagrad/read"
  input: "dnn/hiddenlayer_1/kernel/part_0/read"
  input: "dnn/dnn/hiddenlayer_1/kernel/part_0/Adagrad/read"
  input: "dnn/logits/bias/part_0/read"
  input: "dnn/dnn/logits/bias/part_0/Adagrad/read"
  input: "dnn/logits/kernel/part_0/read"
  input: "dnn/dnn/logits/kernel/part_0/Adagrad/read"
  input: "global_step"
  device: "/device:CPU:0"
  attr {
    key: "dtypes"
    value {
      list {
        type: DT_FLOAT
        type: DT_FLOAT
        type: DT_FLOAT
        type: DT_FLOAT
        type: DT_FLOAT
        type: DT_FLOAT
        type: DT_FLOAT
        type: DT_FLOAT
        type: DT_FLOAT
        type: DT_FLOAT
        type: DT_FLOAT
        type: DT_FLOAT
        type: DT_INT64
      }
    }
  }
}
node {
  name: "save/control_dependency"
  op: "Identity"
  input: "save/ShardedFilename"
  input: "^save/SaveV2"
  device: "/device:CPU:0"
  attr {
    key: "T"
    value {
      type: DT_STRING
    }
  }
  attr {
    key: "_class"
    value {
      list {
        s: "loc:@save/ShardedFilename"
      }
    }
  }
  attr {
    key: "_output_shapes"
    value {
      list {
        shape {
        }
      }
    }
  }
}
node {
  name: "save/MergeV2Checkpoints/checkpoint_prefixes"
  op: "Pack"
  input: "save/ShardedFilename"
  input: "^save/control_dependency"
  device: "/device:CPU:0"
  attr {
    key: "N"
    value {
      i: 1
    }
  }
  attr {
    key: "T"
    value {
      type: DT_STRING
    }
  }
  attr {
    key: "_output_shapes"
    value {
      list {
        shape {
          dim {
            size: 1
          }
        }
      }
    }
  }
  attr {
    key: "axis"
    value {
      i: 0
    }
  }
}
node {
  name: "save/MergeV2Checkpoints"
  op: "MergeV2Checkpoints"
  input: "save/MergeV2Checkpoints/checkpoint_prefixes"
  input: "save/Const"
  device: "/device:CPU:0"
  attr {
    key: "delete_old_dirs"
    value {
      b: true
    }
  }
}
node {
  name: "save/Identity"
  op: "Identity"
  input: "save/Const"
  input: "^save/control_dependency"
  input: "^save/MergeV2Checkpoints"
  device: "/device:CPU:0"
  attr {
    key: "T"
    value {
      type: DT_STRING
    }
  }
  attr {
    key: "_output_shapes"
    value {
      list {
        shape {
        }
      }
    }
  }
}
node {
  name: "save/RestoreV2/tensor_names"
  op: "Const"
  device: "/device:CPU:0"
  attr {
    key: "_output_shapes"
    value {
      list {
        shape {
          dim {
            size: 13
          }
        }
      }
    }
  }
  attr {
    key: "dtype"
    value {
      type: DT_STRING
    }
  }
  attr {
    key: "value"
    value {
      tensor {
        dtype: DT_STRING
        tensor_shape {
          dim {
            size: 13
          }
        }
        string_val: "dnn/hiddenlayer_0/bias"
        string_val: "dnn/hiddenlayer_0/bias/t_0/Adagrad"
        string_val: "dnn/hiddenlayer_0/kernel"
        string_val: "dnn/hiddenlayer_0/kernel/t_0/Adagrad"
        string_val: "dnn/hiddenlayer_1/bias"
        string_val: "dnn/hiddenlayer_1/bias/t_0/Adagrad"
        string_val: "dnn/hiddenlayer_1/kernel"
        string_val: "dnn/hiddenlayer_1/kernel/t_0/Adagrad"
        string_val: "dnn/logits/bias"
        string_val: "dnn/logits/bias/t_0/Adagrad"
        string_val: "dnn/logits/kernel"
        string_val: "dnn/logits/kernel/t_0/Adagrad"
        string_val: "global_step"
      }
    }
  }
}
node {
  name: "save/RestoreV2/shape_and_slices"
  op: "Const"
  device: "/device:CPU:0"
  attr {
    key: "_output_shapes"
    value {
      list {
        shape {
          dim {
            size: 13
          }
        }
      }
    }
  }
  attr {
    key: "dtype"
    value {
      type: DT_STRING
    }
  }
  attr {
    key: "value"
    value {
      tensor {
        dtype: DT_STRING
        tensor_shape {
          dim {
            size: 13
          }
        }
        string_val: "10 0,10"
        string_val: "10 0,10"
        string_val: "20924 10 0,20924:0,10"
        string_val: "20924 10 0,20924:0,10"
        string_val: "10 0,10"
        string_val: "10 0,10"
        string_val: "10 10 0,10:0,10"
        string_val: "10 10 0,10:0,10"
        string_val: "3 0,3"
        string_val: "3 0,3"
        string_val: "10 3 0,10:0,3"
        string_val: "10 3 0,10:0,3"
        string_val: ""
      }
    }
  }
}
node {
  name: "save/RestoreV2"
  op: "RestoreV2"
  input: "save/Const"
  input: "save/RestoreV2/tensor_names"
  input: "save/RestoreV2/shape_and_slices"
  device: "/device:CPU:0"
  attr {
    key: "_output_shapes"
    value {
      list {
        shape {
          dim {
            size: 10
          }
        }
        shape {
          dim {
            size: 10
          }
        }
        shape {
          dim {
            size: 20924
          }
          dim {
            size: 10
          }
        }
        shape {
          dim {
            size: 20924
          }
          dim {
            size: 10
          }
        }
        shape {
          dim {
            size: 10
          }
        }
        shape {
          dim {
            size: 10
          }
        }
        shape {
          dim {
            size: 10
          }
          dim {
            size: 10
          }
        }
        shape {
          dim {
            size: 10
          }
          dim {
            size: 10
          }
        }
        shape {
          dim {
            size: 3
          }
        }
        shape {
          dim {
            size: 3
          }
        }
        shape {
          dim {
            size: 10
          }
          dim {
            size: 3
          }
        }
        shape {
          dim {
            size: 10
          }
          dim {
            size: 3
          }
        }
        shape {
          unknown_rank: true
        }
      }
    }
  }
  attr {
    key: "dtypes"
    value {
      list {
        type: DT_FLOAT
        type: DT_FLOAT
        type: DT_FLOAT
        type: DT_FLOAT
        type: DT_FLOAT
        type: DT_FLOAT
        type: DT_FLOAT
        type: DT_FLOAT
        type: DT_FLOAT
        type: DT_FLOAT
        type: DT_FLOAT
        type: DT_FLOAT
        type: DT_INT64
      }
    }
  }
}
node {
  name: "save/Assign"
  op: "Assign"
  input: "dnn/hiddenlayer_0/bias/part_0"
  input: "save/RestoreV2"
  attr {
    key: "T"
    value {
      type: DT_FLOAT
    }
  }
  attr {
    key: "_class"
    value {
      list {
        s: "loc:@dnn/hiddenlayer_0/bias/part_0"
      }
    }
  }
  attr {
    key: "_output_shapes"
    value {
      list {
        shape {
          dim {
            size: 10
          }
        }
      }
    }
  }
  attr {
    key: "use_locking"
    value {
      b: true
    }
  }
  attr {
    key: "validate_shape"
    value {
      b: true
    }
  }
}
node {
  name: "save/Assign_1"
  op: "Assign"
  input: "dnn/dnn/hiddenlayer_0/bias/part_0/Adagrad"
  input: "save/RestoreV2:1"
  attr {
    key: "T"
    value {
      type: DT_FLOAT
    }
  }
  attr {
    key: "_class"
    value {
      list {
        s: "loc:@dnn/hiddenlayer_0/bias/part_0"
      }
    }
  }
  attr {
    key: "_output_shapes"
    value {
      list {
        shape {
          dim {
            size: 10
          }
        }
      }
    }
  }
  attr {
    key: "use_locking"
    value {
      b: true
    }
  }
  attr {
    key: "validate_shape"
    value {
      b: true
    }
  }
}
node {
  name: "save/Assign_2"
  op: "Assign"
  input: "dnn/hiddenlayer_0/kernel/part_0"
  input: "save/RestoreV2:2"
  attr {
    key: "T"
    value {
      type: DT_FLOAT
    }
  }
  attr {
    key: "_class"
    value {
      list {
        s: "loc:@dnn/hiddenlayer_0/kernel/part_0"
      }
    }
  }
  attr {
    key: "_output_shapes"
    value {
      list {
        shape {
          dim {
            size: 20924
          }
          dim {
            size: 10
          }
        }
      }
    }
  }
  attr {
    key: "use_locking"
    value {
      b: true
    }
  }
  attr {
    key: "validate_shape"
    value {
      b: true
    }
  }
}
node {
  name: "save/Assign_3"
  op: "Assign"
  input: "dnn/dnn/hiddenlayer_0/kernel/part_0/Adagrad"
  input: "save/RestoreV2:3"
  attr {
    key: "T"
    value {
      type: DT_FLOAT
    }
  }
  attr {
    key: "_class"
    value {
      list {
        s: "loc:@dnn/hiddenlayer_0/kernel/part_0"
      }
    }
  }
  attr {
    key: "_output_shapes"
    value {
      list {
        shape {
          dim {
            size: 20924
          }
          dim {
            size: 10
          }
        }
      }
    }
  }
  attr {
    key: "use_locking"
    value {
      b: true
    }
  }
  attr {
    key: "validate_shape"
    value {
      b: true
    }
  }
}
node {
  name: "save/Assign_4"
  op: "Assign"
  input: "dnn/hiddenlayer_1/bias/part_0"
  input: "save/RestoreV2:4"
  attr {
    key: "T"
    value {
      type: DT_FLOAT
    }
  }
  attr {
    key: "_class"
    value {
      list {
        s: "loc:@dnn/hiddenlayer_1/bias/part_0"
      }
    }
  }
  attr {
    key: "_output_shapes"
    value {
      list {
        shape {
          dim {
            size: 10
          }
        }
      }
    }
  }
  attr {
    key: "use_locking"
    value {
      b: true
    }
  }
  attr {
    key: "validate_shape"
    value {
      b: true
    }
  }
}
node {
  name: "save/Assign_5"
  op: "Assign"
  input: "dnn/dnn/hiddenlayer_1/bias/part_0/Adagrad"
  input: "save/RestoreV2:5"
  attr {
    key: "T"
    value {
      type: DT_FLOAT
    }
  }
  attr {
    key: "_class"
    value {
      list {
        s: "loc:@dnn/hiddenlayer_1/bias/part_0"
      }
    }
  }
  attr {
    key: "_output_shapes"
    value {
      list {
        shape {
          dim {
            size: 10
          }
        }
      }
    }
  }
  attr {
    key: "use_locking"
    value {
      b: true
    }
  }
  attr {
    key: "validate_shape"
    value {
      b: true
    }
  }
}
node {
  name: "save/Assign_6"
  op: "Assign"
  input: "dnn/hiddenlayer_1/kernel/part_0"
  input: "save/RestoreV2:6"
  attr {
    key: "T"
    value {
      type: DT_FLOAT
    }
  }
  attr {
    key: "_class"
    value {
      list {
        s: "loc:@dnn/hiddenlayer_1/kernel/part_0"
      }
    }
  }
  attr {
    key: "_output_shapes"
    value {
      list {
        shape {
          dim {
            size: 10
          }
          dim {
            size: 10
          }
        }
      }
    }
  }
  attr {
    key: "use_locking"
    value {
      b: true
    }
  }
  attr {
    key: "validate_shape"
    value {
      b: true
    }
  }
}
node {
  name: "save/Assign_7"
  op: "Assign"
  input: "dnn/dnn/hiddenlayer_1/kernel/part_0/Adagrad"
  input: "save/RestoreV2:7"
  attr {
    key: "T"
    value {
      type: DT_FLOAT
    }
  }
  attr {
    key: "_class"
    value {
      list {
        s: "loc:@dnn/hiddenlayer_1/kernel/part_0"
      }
    }
  }
  attr {
    key: "_output_shapes"
    value {
      list {
        shape {
          dim {
            size: 10
          }
          dim {
            size: 10
          }
        }
      }
    }
  }
  attr {
    key: "use_locking"
    value {
      b: true
    }
  }
  attr {
    key: "validate_shape"
    value {
      b: true
    }
  }
}
node {
  name: "save/Assign_8"
  op: "Assign"
  input: "dnn/logits/bias/part_0"
  input: "save/RestoreV2:8"
  attr {
    key: "T"
    value {
      type: DT_FLOAT
    }
  }
  attr {
    key: "_class"
    value {
      list {
        s: "loc:@dnn/logits/bias/part_0"
      }
    }
  }
  attr {
    key: "_output_shapes"
    value {
      list {
        shape {
          dim {
            size: 3
          }
        }
      }
    }
  }
  attr {
    key: "use_locking"
    value {
      b: true
    }
  }
  attr {
    key: "validate_shape"
    value {
      b: true
    }
  }
}
node {
  name: "save/Assign_9"
  op: "Assign"
  input: "dnn/dnn/logits/bias/part_0/Adagrad"
  input: "save/RestoreV2:9"
  attr {
    key: "T"
    value {
      type: DT_FLOAT
    }
  }
  attr {
    key: "_class"
    value {
      list {
        s: "loc:@dnn/logits/bias/part_0"
      }
    }
  }
  attr {
    key: "_output_shapes"
    value {
      list {
        shape {
          dim {
            size: 3
          }
        }
      }
    }
  }
  attr {
    key: "use_locking"
    value {
      b: true
    }
  }
  attr {
    key: "validate_shape"
    value {
      b: true
    }
  }
}
node {
  name: "save/Assign_10"
  op: "Assign"
  input: "dnn/logits/kernel/part_0"
  input: "save/RestoreV2:10"
  attr {
    key: "T"
    value {
      type: DT_FLOAT
    }
  }
  attr {
    key: "_class"
    value {
      list {
        s: "loc:@dnn/logits/kernel/part_0"
      }
    }
  }
  attr {
    key: "_output_shapes"
    value {
      list {
        shape {
          dim {
            size: 10
          }
          dim {
            size: 3
          }
        }
      }
    }
  }
  attr {
    key: "use_locking"
    value {
      b: true
    }
  }
  attr {
    key: "validate_shape"
    value {
      b: true
    }
  }
}
node {
  name: "save/Assign_11"
  op: "Assign"
  input: "dnn/dnn/logits/kernel/part_0/Adagrad"
  input: "save/RestoreV2:11"
  attr {
    key: "T"
    value {
      type: DT_FLOAT
    }
  }
  attr {
    key: "_class"
    value {
      list {
        s: "loc:@dnn/logits/kernel/part_0"
      }
    }
  }
  attr {
    key: "_output_shapes"
    value {
      list {
        shape {
          dim {
            size: 10
          }
          dim {
            size: 3
          }
        }
      }
    }
  }
  attr {
    key: "use_locking"
    value {
      b: true
    }
  }
  attr {
    key: "validate_shape"
    value {
      b: true
    }
  }
}
node {
  name: "save/Assign_12"
  op: "Assign"
  input: "global_step"
  input: "save/RestoreV2:12"
  attr {
    key: "T"
    value {
      type: DT_INT64
    }
  }
  attr {
    key: "_class"
    value {
      list {
        s: "loc:@global_step"
      }
    }
  }
  attr {
    key: "_output_shapes"
    value {
      list {
        shape {
        }
      }
    }
  }
  attr {
    key: "use_locking"
    value {
      b: true
    }
  }
  attr {
    key: "validate_shape"
    value {
      b: true
    }
  }
}
node {
  name: "save/restore_shard"
  op: "NoOp"
  input: "^save/Assign"
  input: "^save/Assign_1"
  input: "^save/Assign_2"
  input: "^save/Assign_3"
  input: "^save/Assign_4"
  input: "^save/Assign_5"
  input: "^save/Assign_6"
  input: "^save/Assign_7"
  input: "^save/Assign_8"
  input: "^save/Assign_9"
  input: "^save/Assign_10"
  input: "^save/Assign_11"
  input: "^save/Assign_12"
}
node {
  name: "save/restore_all"
  op: "NoOp"
  input: "^save/restore_shard"
}
versions {
  producer: 26
}
